snake_ddqn_weights.pth (torch, 904231 bytes, 8 tensors)

conv1.weight f4 [32, 4, 3, 3]
00000000: a6ab 97bc 21ab b63d 9993 0bbe 4d9f 03be
00000010: 9b39 2dbe 8525 1f3c 81da 5fbd 7c2a 443e
00000020: 3135 b4bd 0fd2 30bc 2293 82bd dfff a7bc
00000030: 22a9 90be 32aa a3bd 1764 7ebe c20d 753d
00000040: ce84 583e b623 813e 14bd 88bd 4e38 1fbc
00000050: 1a43 9e3d 75b2 233e c433 a6bc 0a3d 613e
00000060: 6dd1 fe3c cb36 7bbb 9ba9 563e 9bfd 6bbd
00000070: 2a4f d7bd 24c6 983c b489 d6bc 6177 a23e
00000080: 3581 28be 28ee 07be 723d 5cbe ca1d 61be
00000090: fb7e dcbd caee 2f3e e019 aa3d e19a ad3d
000000a0: 3526 803d e7e8 a3bd 1297 243d 91ea 04be
000000b0: dc91 85bd a7d4 4dbe 629c ec3d a662 2b3e
000000c0: 1f49 aebd 5413 bebc 7b11 643e 7bd5 6b3e
000000d0: 28bd 5b3e 16fa 223e e216 e33d 4646 0abe
000000e0: 9366 a53d a037 d7bc 47d4 20be a1ea dfbd
000000f0: 5ab6 b23d 4d15 0d3d 4913 20be 1562 873e
00000100: 58be 5e3e 9715 ad3c ebcb e73d 1db9 003e
00000110: 3c44 843e 284f 883e 9142 2fbd 246f 06bd
00000120: 8539 ae3d 0d3d 123e 38c1 fc3d 1ce7 2d3e
00000130: 63ae 8a3d 25ec 24be ea93 9bbc 0b3b 0ebe
00000140: 455c 50be 9203 633e 09b6 1f3e 1984 66be
00000150: d244 d03d da6d f03d e1a7 17be 9827 32bc
00000160: 7a80 473e 9a95 dfbd 6973 6a3d bac8 703d
00000170: d0fd 123e 171d 633d f819 0ebe f13e 383c
00000180: 12bc ee3d 70ac df3d 1971 78bd 73b7 b7be
00000190: 894e 673e 911c 1b3e 539c 9cbe d92a 66be
000001a0: 0a98 86be 5ac2 6e3c 1652 81be 4fd7 b5bd
000001b0: a5ad cbbb d544 2d3d dec3 9ebd e127 103e
000001c0: 198e b7bd 9cb5 dd3d 7176 be3d 65fd 85be
000001d0: 8adf cebd 1bad 0fbc af19 153e df3b ab3d
000001e0: c827 1c3e 9e20 d23d e2dc a73d ba4c 2a3e
000001f0: 64a4 05be b50c 0ebe ba6c b03d 9cdb 06bc
00000200: c8e5 373c 3015 cdbd bcd8 06be fd65 5d3d
00000210: eeab 9fba 1190 6abc c3bd 333e 69c6 a6bd
00000220: cb02 c6bd 1ff9 40bd ff7a 7c3d ed3a a93e
00000230: f70b bd3e 2374 703e 5c4c ea3e 0453 06bd
00000240: 2366 fbbd ff52 1f3c 60c9 063e 39b4 b03d
00000250: 898d 2bbd c17d 29be 2198 a1bd b20b b0bd
00000260: 8b58 293d 53de 813e 75a3 3b3d a0df 3abe
00000270: 08f2 853e 2f08 55bd af02 28bd 22a5 923d
00000280: f2a0 3bbd 8330 8cbd 503b 6fbe ecd9 72be
00000290: 2f83 a23c 3850 5c3d 718a 703c 7393 ca3d
000002a0: ad4c c7bd 8cd1 82bc f594 293e c61a bcbc
000002b0: 482f 9f3e 34b2 963e 877c 7abe b5e8 2a3e
000002c0: 34ed 143e e282 11be 0c6e 9d3e 0852 63bd
000002d0: 6a19 883c 9249 8ebc c14c 153e bf1d 883c
000002e0: 7a28 cd3d 7639 d33d f529 74bd 50d9 88bd
000002f0: 1aa3 d2bd 4172 443e 9528 733e c5fa 693e
00000300: d3ca 9cbe 1d0c d03d d8d6 cebd 6978 26be
00000310: 5949 26be b5e2 9f3d a806 0ebe eed1 3fbd
00000320: 0fc0 9d3c 30b4 593e 0684 02be 89f2 26bd
00000330: ab49 41bd bf50 2a3e 2c2d a5bd 7dde 4f3e
00000340: 6c57 383d 8697 20bd 8924 803d 311b dc3b
00000350: 4a13 03be d978 0e3e 3f3e 233e b6e4 ba3d
00000360: 2122 20be 5526 b3bd 5916 093e 648e e0bd
00000370: 5e94 22bc 98c8 463e 34b9 d93d 9600 033c
00000380: 168b fdbd 8095 da3d d35b 01bd 08e1 033e
00000390: 5ce1 e1bd 4bb2 013d ea0b 3abe 849b 283e
000003a0: 5ca9 b43d 5729 943e 1304 813d 9b6a 16be
000003b0: cf98 fe3d b064 9abe d412 7cbc ae77 dd3d
000003c0: 6779 a03c cd95 eb3d c76c 07be 81f3 383e
000003d0: e835 7f3e acd5 46be 91f7 a23e 5560 b9be
000003e0: bd14 19bd 7c3e 3dbd a600 4ebe 2c71 3bbd
000003f0: 3db4 133e 4453 d1bc a64c 94bd b210 5ebd
-0.018514466 0.08919359 -0.13630523 -0.12853737 -0.16916506 0.009713535 -0.05465174 0.19156832
-0.08799208 -0.010792269 -0.063757196 -0.020507751 -0.28254038 -0.079914466 -0.24842869 0.059827574
0.21144411 0.25222558 -0.06676689 -0.009718014 0.07727642 0.15986045 -0.020288356 0.21995941
0.031105721 -0.003833222 0.20963137 -0.057614904 -0.10513146 0.018649168 -0.026188709 0.31731704
-0.16455539 -0.13274443 -0.21507815 -0.2198402 -0.10766407 0.17180935 0.083057165 0.084768064
0.062572874 -0.08003407 0.040183134 -0.12980105 -0.06521961 -0.20100652 0.11553265 0.1673685
-0.085100405 -0.023202576 0.22272293 0.23030655 0.21458876 0.15915713 0.11088349 -0.1350337
0.08076205 -0.026271641 -0.15705977 -0.10933424 0.08726187 0.034444142 -0.15632357 0.26442018
0.21752298 0.021128459 0.11318191 0.12570615 0.2583331 0.2662289 -0.042788092 -0.032820836
0.08507065 0.14281102 0.12341541 0.16982692 0.06771543 -0.16105707 -0.01899143 -0.1388971
-0.20347698 0.2216933 0.15596785 -0.22511329 0.101693764 0.117397025 -0.14810134 -0.010873698
0.19482604 -0.10917206 0.05723897 0.058785178 0.14354634 0.055447664 -0.13877094 0.011245475
0.11656965 0.10921562 -0.060654733 -0.35882148 0.22588553 0.15147616 -0.30588016 -0.22477283
-0.26287872 0.014572704 -0.2525794 -0.088789575 -0.0062157684 0.04230197 -0.077522025 0.14077713
-0.0896265 0.10825655 0.09299935 -0.26169887 -0.101012304 -0.008769299 0.14560579 0.08361029
0.1524955 0.102601275 0.08196427 0.16630831 -0.13050991 -0.13872035 0.08614488 -0.00823107
0.011224218 -0.10013807 -0.13168615 0.05405234 -0.0012181976 -0.014316575 0.17552857 -0.081433125
-0.096685015 -0.04711258 0.061640736 0.3305277 0.3692319 0.23481803 0.45761383 -0.032794014
-0.122753404 0.009724378 0.13162756 0.08628125 -0.041883025 -0.16551878 -0.078903444 -0.08595981
0.041344207 0.25364932 0.04581018 -0.18249369 0.26161218 -0.052009758 -0.041018184 0.07160403
-0.045807786 -0.068451904 -0.2336247 -0.23715943 0.019837944 0.05378744 0.0146814445 0.09891405
-0.097314216 -0.01596906 0.16560729 -0.022961985 0.3109076 0.29432833 -0.24461566 0.16690333
0.14543611 -0.14210084 0.30748022 -0.055498153 0.01661368 -0.017369065 0.1458006 0.016615747
0.10017486 0.10313694 -0.059610326 -0.06682074 -0.102850154 0.1918421 0.2374595 0.22849567
-0.30623493 0.101585604 -0.10099572 -0.1625687 -0.16238917 0.07806913 -0.13869727 -0.046831064
0.01925662 0.21260142 -0.12745675 -0.040758643 -0.047189396 0.16632365 -0.080652565 0.20299716
0.045005247 -0.039207004 0.062569685 0.0067171087 -0.12800327 0.13913287 0.15941714 0.091256544
-0.15638019 -0.08747546 0.13387431 -0.10964659 -0.009923069 0.19412458 0.10631028 0.007995745
-0.12380044 0.10673046 -0.03158171 0.12878811 -0.11029312 0.031664174 -0.18168607 0.16465575
0.08821365 0.2893779 0.06299605 -0.14689104 0.1243149 -0.30154943 -0.015385348 0.10813843
0.01958914 0.115031816 -0.13225089 0.1806164 0.24922907 -0.19417447 0.31829503 -0.36206308
-0.037373293 -0.046202168 -0.20117435 -0.045762226 0.14424224 -0.0255524 -0.07241182 -0.05421514

conv1.bias f4 [32]
00000000: dcb7 d3bd 5b6d 6e3d 6236 f93d 05b7 b8bd
00000010: 94fb 633c 1a56 283e 3168 9d3c a368 033e
00000020: c863 c4bd 4f28 66bd 2ca9 96bd e83f 333e
00000030: 60be 9b3d 11fb 88bd f353 5d3d 584d 223d
00000040: c940 3b3c 3598 38bd eca3 033b c10f 0b3e
00000050: edd4 5ebd c58e b4bd 3a73 2d3c d8dc d23c
00000060: a601 763d a2fe ee3c 68c9 ba3c 0066 3ebd
00000070: 5116 aabb 2cfb 5fbd 3645 183e 4934 a5bc
-0.10337803 0.05820976 0.12168576 -0.09019283 0.013914961 0.16439095 0.019214721 0.12832884
-0.09589344 -0.056190785 -0.07356486 0.17504847 0.076046705 -0.06688512 0.05403514 0.039624542
0.01142902 -0.04506703 0.0020086719 0.13580228 -0.05440228 -0.088162936 0.010586554 0.025740072
0.060060166 0.029174153 0.022801116 -0.046483994 -0.0051906486 -0.054682896 0.14870152 -0.020166533

conv2.weight f4 [64, 32, 3, 3]
00000000: 3e83 29be c0d8 a5ba 1a97 06bd f189 b23b
00000010: 53b3 b13d db7d 30bd 063e a7bd 357b 903d
00000020: 086f 623d 66ec bd3d 677d 473b 4c2d 52bd
00000030: d509 093d d389 c5bc 9f5a 8f3d 6cc2 03bd
00000040: 8bde de3d b9e9 d53d 35de a33d 4b23 99bd
00000050: cb3d 86bd 4818 9dbd b4ff 95bd fa1a 203d
00000060: b653 1abd 7c21 25bd e49e 38bd 2e73 99bc
00000070: d0ea 873c 803c bdbc 0b09 08be 2913 5dbd
00000080: 90e0 d33d bc0c 1b3d 58a2 b93d a88f 503d
00000090: a7e5 5cbd 52e6 05bd 51df a33d 2dc1 a7bd
000000a0: 9551 d13c 48db 013e d6b4 d5bc dbc5 8c3d
000000b0: 8674 cb3d af3f 47bc 0c6a 323d 344f aa3d
000000c0: 262f 13bd beba 24bc c66f 903d f250 1dbd
000000d0: 46b2 113d 93d1 96bb 5a3b e1bc 3f8f d3bd
000000e0: 4504 9d3c 3350 26bd a52f 533d c26d cb3c
000000f0: 3dba 46bb b76e a3bb 86e6 173b 2268 8cbd
00000100: f2a5 3b3e ad1d 193d 855d e63d 84ae 083e
00000110: ff8c b2bd 4dc5 9ebb add5 e73c aa32 96ba
00000120: 77f8 753d 067e a0bd ccfb 9a3d c125 283d
00000130: d666 bbbd be45 e83c 0172 f53d ecb9 b43c
00000140: 2c0b a63d ecfb ab3c 095a d5bc ae47 613d
00000150: effd 413d e277 853d 5f54 10bd 6930 1e3d
00000160: a99c 40bd 6371 19bd dba3 5a3d cf0b 65bd
00000170: 3af2 333d 2c6d 263d b31c f7bc e60d 843c
00000180: 330f dfbd d514 78bd e44c 463b 1b5e dd3a
00000190: 9ae3 9b3c f013 f6bc e9b8 2abd c0ae ed3c
000001a0: db3d 08bc 50c2 7cbd f528 143d 769f 613d
000001b0: 5ab2 763d ec68 23bd 63f2 45bd 03fd 3abd
000001c0: 3116 3bbd 2a26 34bd fd41 9bbd 30c9 ccbd
000001d0: 918c 0bbd 66a4 b43c fba6 983d 229c a23d
000001e0: f42c 473d e3f8 bf3d c178 1f3d 4331 993c
000001f0: a597 f73c e7c1 733d d55a dd3c 4ad6 c9bc
00000200: 5136 aabc 69a3 a8bd 8c08 22bc 5e4e 393d
00000210: 74c5 c7bd 1f59 b2bd 8a9f 9d3d 96c2 893c
00000220: 19c2 d3bc 23b1 da3c ad77 013c 7280 dcbc
00000230: e863 8dba baf0 843d 776b b83c 14f8 863c
00000240: c989 e1bc 179e 84bd 2730 64bc 106d 9fbd
00000250: f8e4 acbc 44bb 893d 41e4 60bd 9dd9 35bd
00000260: c6e9 253d c4df 5c3c 9b63 5f3c d8b6 b43c
00000270: 2bf9 6d3b 43a5 79bb 8650 4f3c 17d9 943d
00000280: ed98 42bd 4cf1 f2bc b8c2 373d 5e4b c9bc
00000290: 0433 653d a523 363d 435c c73c 7ec2 543d
000002a0: 47a0 c13d 7d4f b83d c22e ebbc 9a4e 4e3d
000002b0: 2d55 22bd 730e ab3a 6238 5a3c 043a 9ab9
000002c0: fee6 983d 0ba3 1c3d f032 f6bc dfa7 783d
000002d0: a0c5 d03d 0cf4 71bc 7e0a 95bb 014d 06bd
000002e0: 6752 3abe 7830 bf3c 84df 75bc e0d3 2d3c
000002f0: d69d 9cbd 62de 683a bf5d 8abc 2530 243d
00000300: 514f 623b c618 acbc ff5b 4ebc 5d3a fbbc
00000310: ef13 423d 5468 b1bc 6d78 45bd 73d7 9cbd
00000320: 1f65 e43d c174 03bc 38fd 9136 911c 493d
00000330: 4c9e 2dbd 7a6f a63d 9a37 503d 3214 f73c
00000340: 0ab3 c83c e06f cd3d e773 863d 8eea 4dbc
00000350: 7eb0 603d a48b 41bd aad6 cd3c b5a8 1c3d
00000360: 84f0 4c3d f8d6 82bd 0cbf 82bd c66a 3b3d
00000370: 5a97 67bd e3bb cf3c 84bf b73d b008 61bd
00000380: e86a 4d3d f5a2 aabb 809f 913c 87e2 0ebd
00000390: 8b57 863d 6190 b93d dc47 933d 2b9a eebb
000003a0: 2efc 323d 8987 69bd b5c7 26bd d8f4 a2bc
000003b0: f308 953b 2189 eebd 92c5 bbbd a621 05bc
000003c0: 2d96 28be fb91 3abc ed8c 3f3d da6e 463c
000003d0: 2d5c 50bd 4a24 89bd 3f7e 66bd 1247 eebc
000003e0: fcde e43c cd9e 41bd 4622 b0bd 6538 efbc
000003f0: 54fb 23bd b61c 6cbd 8e9c 33bd 78b7 1a3d
-0.16553971 -0.0012653098 -0.032858945 0.005448573 0.086767815 -0.043088775 -0.08166127 0.0705475
0.05528167 0.09273605 0.0030439736 -0.05131273 0.033456642 -0.024113571 0.069997065 -0.032167837
0.108822905 0.1044497 0.08001367 -0.07477435 -0.06554755 -0.07670647 -0.07324162 0.039088227
-0.03767749 -0.040315136 -0.045073405 -0.01873168 0.01659146 -0.023100138 -0.132847 -0.05397335
0.10345566 0.03785394 0.09064168 0.05091825 -0.05392995 -0.032690354 0.080015786 -0.08191142
0.025551597 0.12681305 -0.026087206 0.068736754 0.099343345 -0.012161179 0.043558165 0.08315888
-0.035933636 -0.010054288 0.07052569 -0.038407274 0.035570405 -0.00460262 -0.027494121 -0.103300564
0.019167075 -0.040603828 0.05155911 0.02483261 -0.003032341 -0.0049875635 0.0023178174 -0.06855799
0.18325022 0.037381817 0.11248306 0.13347822 -0.08718299 -0.0048452974 0.02830013 -0.0011459191
0.060051408 -0.07836537 0.07567558 0.04105163 -0.09150474 0.028353568 0.11984635 0.02206131
0.081075996 0.02099415 -0.026043909 0.055 0.04736131 0.065170065 -0.035236713 0.038620386
-0.047024403 -0.03746165 0.05337892 -0.055919465 0.043932177 0.04063146 -0.030165052 0.016119909
-0.10891571 -0.060566742 0.0030258233 0.0016889008 0.019029427 -0.030038804 -0.04168025 0.029013991
-0.008315529 -0.06170875 0.036171872 0.055083714 0.060228683 -0.039894983 -0.04832686 -0.045651447
-0.04567546 -0.04398171 -0.07580946 -0.09999311 -0.0340696 0.022051048 0.07453724 0.07939936
0.048626855 0.09373643 0.03893352 0.018700248 0.030223677 0.05951109 0.027020851 -0.024638314
-0.020777853 -0.08234293 -0.009889733 0.045240752 -0.09754458 -0.08708405 0.07696445 0.016816419
-0.025849389 0.026695793 0.007902068 -0.026916716 -0.0010787221 0.064912274 0.02251218 0.016475715
-0.027531521 -0.06475466 -0.013927496 -0.07784474 -0.021105275 0.06725171 -0.05490518 -0.044396985
0.040506147 0.013481084 0.013634588 0.022059843 0.0036311846 -0.0038092888 0.012653476 0.07267969
-0.047509123 -0.029656075 0.044863433 -0.02457207 0.055956855 0.044467587 0.024335986 0.051943295
0.094543986 0.08999536 -0.02870882 0.05036793 -0.03963201 0.0013050571 0.013319107 -0.00029416394
0.07465933 0.038241427 -0.030053586 0.06070697 0.10193944 -0.014767658 -0.00454837 -0.03278828
-0.18195496 0.023338541 -0.015006904 0.010609597 -0.07647292 0.0008883235 -0.016890405 0.040084977
0.003453214 -0.021007907 -0.012595176 -0.030667478 0.04738229 -0.021656193 -0.04821055 -0.07658281
0.111521 -0.008023442 4.3508153e-06 0.04909951 -0.04238729 0.08126731 0.050834276 0.030160997
0.024499435 0.10031104 0.06565075 -0.012568129 0.054855816 -0.047252312 0.025126774 0.03824683
0.05003406 -0.06388658 -0.063840955 0.045756124 -0.056540824 0.025358146 0.089720756 -0.054939926
0.050150782 -0.0052074143 0.01777625 -0.034884002 0.06559666 0.09060741 0.071914405 -0.007281562
0.04369753 -0.057014022 -0.0407178 -0.019892141 0.004548186 -0.11647249 -0.09168543 -0.008125698
-0.16463538 -0.0113873435 0.046765257 0.01211139 -0.050869156 -0.06696375 -0.05627274 -0.029086623
0.027938358 -0.047270585 -0.08600287 -0.029201696 -0.040034607 -0.05764457 -0.043850474 0.037772626

conv2.bias f4 [64]
00000000: 077b c83c 0976 8bbc 9092 06bd 6293 963c
00000010: 3cc5 2f3c 57e4 c53c 1dd2 c43b b470 1c3d
00000020: b1bf 09bd 8dcb a6bc 66b5 3dbd d9af 27bd
00000030: 4a43 3abd fdb9 42bd 843e 8d3c 36ac 1cbd
00000040: 9e3a a8bd 72f1 6dbd 163e 4cbd 0329 b03c
00000050: 3cac ccbc cb9f 963b 34a3 bb3c c464 1d3d
00000060: 890b 25bd 0dfa d53c 00ba d23b 9eee 1a3b
00000070: cd4c c0bc 3e26 a43c 36c9 b4ba 64c8 853c
00000080: 2b65 4cbd 9485 9cbc 9679 fcbc 225a 70bd
00000090: 5a36 7abd 66b9 c03b 3965 4bbd 532a 133d
000000a0: f07c 5a3d 1d25 81bc 9625 64bc 92b9 31bc
000000b0: 1d58 eabc 377a 463d 645d 1fbd 8406 30bd
000000c0: 1db0 a0bc 0640 7bbb f31a 1cbd a36a 123b
000000d0: 6b55 f4bc a781 413d bdf7 00bd 21b1 8d3c
000000e0: ca0f 02bc 1fbf 51bc c271 36bd c5c3 e33c
000000f0: a23f 1c3d 3c44 fcb9 3356 a1bc 0e4d de3c
0.024472727 -0.017024057 -0.032854617 0.018380824 0.010728177 0.024156732 0.006006493 0.03819342
-0.033630077 -0.020360732 -0.046315573 -0.040939186 -0.045474328 -0.047540653 0.017241724 -0.03825017
-0.08214305 -0.05809159 -0.049863897 0.02150393 -0.024984471 0.0045966855 0.02290497 0.038426176
-0.040294204 0.02612021 0.0064308643 0.0023640762 -0.023474121 0.020037767 -0.0013792876 0.016330905
-0.04990117 -0.019106664 -0.030819695 -0.058679707 -0.06108699 0.005881476 -0.04965708 0.035929035
0.053341806 -0.015764767 -0.013924977 -0.010847466 -0.028606469 0.048456397 -0.038907424 -0.042974964
-0.019615227 -0.0038337721 -0.03811164 0.0022341392 -0.029825887 0.047242787 -0.03148626 0.017296376
-0.007938335 -0.0128019145 -0.04454208 0.027803311 0.038146622 -0.00048116024 -0.019694423 0.027136352

fc1.weight f4 [128, 1600]
00000000: 5fed 45bc 75e9 993c ba8f 8d3c 2d21 80bd
00000010: a82e 193c 5627 aa3c 8bbb 92bc 046c 3ebc
00000020: 0281 afbb 5dc9 283c fde4 853b 3202 2c3d
00000030: 3dd4 023d ca32 c0bd 864b c3bb edfa 82bc
00000040: b8ea 4ebc 9b24 bfbc 9770 243c 08d4 1a3d
00000050: 0aa6 d3bc 5cc3 233d b82e c4bc b388 53bd
00000060: 6a0e c0bd f6ed 5e3d e889 143d 3e73 513d
00000070: 1650 dabd c63f 03bd 674f 973d f7e3 e13c
00000080: 0ba7 9b3d 484c b0ba 3d05 f7b9 641c 8c3d
00000090: 97c6 013d dc53 a23d 94a8 703c fb26 48bd
000000a0: 483b ac3d 402a ef3c 37c6 2bbd 4b0e 303d
000000b0: c1ed c53d 6526 bfbc cc65 653d b4a5 b93c
000000c0: 733b 00bd 98a6 2cbd a8c3 b93b 55f0 4abc
000000d0: 0bc3 65bd 3ee0 59bd 76da adbc 3b55 ee3b
000000e0: 779f 2cbd 9448 89bd 339d 673d d803 49bd
000000f0: e16b dfbb b9e6 63bb 0d2f a0bc ca53 aabc
00000100: 4eca 97bd 4d90 0a3d dae8 0d3c c29d 2fbd
00000110: cf33 23bd 299f bfbc 8120 933d b7d2 4b3c
00000120: 9dc4 1fbc d4e6 083c 8850 87bb c07a 16bd
00000130: db26 633d 85da e0bc ce14 ab3c cdb3 9fbc
00000140: 1e67 303d da27 bd39 0df6 06bb f09e fdbc
00000150: bc64 b6bd 6a2f 1c3d 7057 0f3d 396c 7d3c
00000160: 7161 713c 53ca 0cbd 74cf 45bc 2782 233d
00000170: 65d8 0d3c 98e5 a0bc 8947 2ebd 76ed e13b
00000180: 82e0 993c 275e 01bd 10ef 21bd 0496 0abc
00000190: cb58 c3bd 54b1 b1bc ab03 d0bd 6dd2 0abd
000001a0: d400 00bd 47ef 95bd 3ca3 43bc 2516 27bb
000001b0: 7b5d 56bd 54eb d9bc 934d 98bc 291b 503d
000001c0: 47a4 c23c f28d 7d3d 550c 963c 8a26 933c
000001d0: 4903 d73c 07ca 133d 55b3 fd3c 2149 4e3c
000001e0: ce0d 28bc f93c a7bc 44a5 d4bd dcba 79bd
000001f0: a58f f1bd 7a00 e2bc c762 a13b 5325 d43a
00000200: 6bb4 43bc 5a2f 80bd 8877 473c 08a7 8e3c
00000210: bb61 833c 7f49 1dbd fa7d 31bc 7e17 2dbc
00000220: 67cb 173d 4a12 e13c 44ea 5e3b 5173 bbbd
00000230: 8099 c1bc aa10 59bc 3f3a 58bc a596 cb3b
00000240: 9c38 ea3c ac95 62bc 7e91 763c 40fe c9bb
00000250: 4fd4 07be 87bf 04be eee5 1abb 5c48 9c3b
00000260: 8e01 0fbd 2146 0ebd 3a6c debb ace4 c93c
00000270: 1947 0cbc 580b bfbc 4706 3bbb 845f aa3b
00000280: 7fe7 5a3d 5a84 06bc bd40 a4bc 374e d7bd
00000290: dccb 853c 24ac 4e3d ce2a 73bd 911e 16bd
000002a0: 5315 05bd 761a 873b 135a dcbb c41e 12bd
000002b0: bbde a8bd 07e3 bbbd 20b1 1bbd 7aee 363d
000002c0: 872d fe3c 7b11 0a3b b29b 613c 1329 123d
000002d0: 0d5f bd3c c28b 5c3c 5bca d83b c53b 27bc
000002e0: 5b42 05bd 37d8 a23d 78d5 ad3b 559b 1abd
000002f0: 95fe 64bc 7def 35bd 6997 7f3d 893b 6a3c
00000300: 22ee 97bc bd16 57bb 910d 493c e059 33ba
00000310: 278a e83c 3466 223d da2f 093c a150 533d
00000320: 2754 6a3c 0f86 aebd 523b 8c3c 5f71 d6bc
00000330: 36cc 85bd 7480 61bd f8d7 08bd 915d 22bd
00000340: a7b5 5dbd 0a4c 093c 4a4c a7bc 2625 f5bc
00000350: 0797 abbc 3361 56bd fa2e 3abd 466d 9bbc
00000360: fc6b 99bd af44 5c3c 2d4c 5cbc cae5 5c3c
00000370: e4f6 00ba 8b47 1dbd 3420 7fbc 4ea5 d4bd
00000380: df78 48bd e64d d03c e868 25bd 677e 6dbd
00000390: 80f0 47bb ddd2 d0bc c4e5 013d 8851 d63b
000003a0: 864f 9abc d1ef 713c 6495 383c c3e0 4c3c
000003b0: c303 45bc cc13 afbd 3367 07bd 7d6a b7bc
000003c0: 36b8 54bc 2fc5 343d 66a3 033d 04f3 06bd
000003d0: 7041 363d 623f 40bd d555 dfbc f3e3 1abd
000003e0: b973 35bd 9f64 03bb 62dc 82bc 93c8 413d
000003f0: 7002 683c 354b 2b3d 2c8c 8cba 29a1 583b
-0.012080519 0.018788079 0.017280448 -0.06256328 0.009349503 0.02077071 -0.017911693 -0.011622433
-0.005355955 0.010301915 0.0040861354 0.04199428 0.031940687 -0.09384687 -0.005959931 -0.015988791
-0.0126292035 -0.023332885 0.010036609 0.037799865 -0.02583601 0.03998123 -0.023948058 -0.05164404
-0.09377749 0.054426156 0.03626433 0.051135294 -0.106598064 -0.03204324 0.07388192 0.027574522
0.0760022 -0.0013450468 -0.00047115414 0.068413526 0.03168353 0.07926151 0.01468863 -0.0488653
0.084097445 0.029194951 -0.04193708 0.04298238 0.096644886 -0.023333738 0.056005284 0.022662021
-0.031306695 -0.042151064 0.005669076 -0.012386401 -0.05609421 -0.05319237 -0.021222334 0.007273344
-0.042144265 -0.06703296 0.0565464 -0.04907593 -0.00681828 -0.0034774973 -0.019553686 -0.020791907
-0.074116334 0.033829022 0.008661473 -0.04287506 -0.03984433 -0.023391323 0.07183934 0.012440375
-0.009751466 0.008355815 -0.004129473 -0.036738157 0.055456977 -0.027447948 0.020883944 -0.019494915
0.04306709 0.0003607858 -0.0020593435 -0.030959576 -0.08905932 0.038131155 0.034995496 0.015467697
0.0147327045 -0.03437264 -0.012073386 0.039919045 0.0086575495 -0.019640729 -0.04254869 0.0068947626
0.018783811 -0.03158393 -0.03953463 -0.008458618 -0.0953842 -0.021691002 -0.101569496 -0.033892084
-0.03125079 -0.07321029 -0.011940774 -0.0025495377 -0.052335244 -0.026601471 -0.018591678 0.050807152
0.023759974 0.061902948 0.018316427 0.017962713 0.026246684 0.03608134 0.030969301 0.0125906775
-0.010257198 -0.020414816 -0.103830844 -0.06096922 -0.11794976 -0.027588118 0.0049251053 0.001618544
-0.01194487 -0.062590316 0.012174495 0.017413631 0.016037812 -0.03840017 -0.010833258 -0.010564683
0.037059214 0.027474541 0.0034014145 -0.09152854 -0.023632765 -0.013248602 -0.013197481 0.0062130266
0.028591447 -0.01382963 0.0150493365 -0.006164342 -0.13264583 -0.12963687 -0.0023635584 0.004769368
-0.034913592 -0.03473485 -0.006787804 0.024645172 -0.008561873 -0.023320839 -0.0028537677 0.0051993746
0.053443428 -0.008210266 -0.0200504 -0.10512965 0.01633256 0.050457135 -0.059366994 -0.036650244
-0.03249104 0.0041230274 -0.006724605 -0.03567387 -0.082456075 -0.091741614 -0.038010716 0.044661023
0.031027569 0.0021067548 0.013770031 0.035683703 0.023116613 0.013461055 0.0066159195 -0.010207121
-0.032533985 0.07951396 0.0053049885 -0.037745792 -0.013976713 -0.044417847 0.062400255 0.014296421
-0.018546168 -0.003281995 0.012271301 -0.00068417005 0.028386189 0.03964825 0.008373225 0.051590566
0.01430229 -0.085216634 0.01711813 -0.026177106 -0.06533091 -0.055054143 -0.03340909 -0.039640013
-0.054128315 0.0083799455 -0.02042212 -0.02992494 -0.020946039 -0.05233879 -0.045454957 -0.018973004
-0.074912995 0.01344411 -0.013445896 0.01348252 -0.0004919602 -0.038398307 -0.015571643 -0.10383092
-0.048943397 0.02542777 -0.04038325 -0.057981875 -0.003050834 -0.025491172 0.031713262 0.006540481
-0.018836748 0.014766649 0.011266086 0.012504759 -0.012024823 -0.08548698 -0.033057403 -0.022389645
-0.012983372 0.04413336 0.03213825 -0.0329466 0.044496 -0.046935447 -0.027262608 -0.037815046
-0.044299815 -0.0020048989 -0.015974227 0.047310423 0.014160737 0.04181977 -0.0010722927 0.0033055043

fc1.bias f4 [128]
00000000: 0291 953b cf6a 253d c640 e9bb 29d6 17bc
00000010: fa54 14ba 35e4 a03c 4f34 193d 89e9 bbba
00000020: 0180 0ebc 3c3d 223d 5128 4abc 1ec8 5d3c
00000030: 6785 923c 88e0 57bb 91e3 893b 9045 a83c
00000040: b2dc ebbc 49fb dfbb 153b 93bc f401 8b3c
00000050: 1f68 e03c a4c3 063c 8cf2 17bc bc0c f2bb
00000060: 7b35 a43c e2b4 02bd b5e7 f1b9 2720 333d
00000070: cda4 853c c646 ff3c 06df 333c ef7e 713d
00000080: a569 843b d42f 243d bb9b 87bb 3a9f aebb
00000090: 1a48 313c b078 243d 087b d0bc 1b36 573c
000000a0: 312e b03c 8d21 c0bc 8377 37bc 9860 b63c
000000b0: 899d 0b3d 20d1 f3bb 4376 843c b6b9 dcba
000000c0: e2f1 4fbc 0c69 c7bb 0d48 c5bb 1dff f7bc
000000d0: ccea e63b d979 003d d88f cdbc 97a5 e4bc
000000e0: 7c40 4b3d ecd1 3d3c bfe7 89bc e938 1c3d
000000f0: 9fba a0bc b5c4 e1bb b486 0abc 7f89 383d
00000100: a939 263c 3277 fa3c 021f c23c b85d 7bbb
00000110: d529 9e3c 67dc ab3b b504 313b 2c4c 193c
00000120: 8251 0a3d a7a6 e33c 2876 2dbc e36f cbbc
00000130: 7c2a 083d 175f 3f3c acfa 7cbc 746c 003c
00000140: f8c5 20bc 44e1 f2bb 3f96 ccbc 7405 b0bb
00000150: 95f5 893c c961 f33b 242a 80bc 0b65 95bc
00000160: fc7c c53c baa1 373d 3aff 9fbc bb82 16bc
00000170: 10dd 21bd cdb6 063c 3d49 033c 7989 1a3d
00000180: 79c8 933c 5d2b 0c3d 366b 493d cd66 043d
00000190: 440b 243d dea8 dfbb 06e7 a1bc cf92 123c
000001a0: 7d33 713b 4f09 073c 6b45 433c 9e3d 583c
000001b0: 745b b1bc 7034 2b3b 734e babc 918d 6b3c
000001c0: bfdd f23b 9548 0cbc b36f d6bc 1b2e 6b3c
000001d0: 1485 953c 5540 ed3b 9890 e33c 2e4f 9cbc
000001e0: 1f1c 73bb 6ce1 8f3c 11cc e93b 70b2 0d3c
000001f0: 2c0d 8fbc 077a 003d 7a55 163d ae10 14bc
0.0045644054 0.040385064 -0.0071183173 -0.009267368 -0.00056584144 0.019640068 0.0374034 -0.0014336567
-0.008697511 0.03960918 -0.012338714 0.013536481 0.017885877 -0.0032940228 0.004208036 0.020540982
-0.02879176 -0.0068353754 -0.017972508 0.016968705 0.027393399 0.008225355 -0.009274136 -0.007386772
0.020045033 -0.031910785 -0.00046139737 0.043731835 0.016313935 0.031161677 0.010978466 0.058958944
0.004040914 0.040084675 -0.0041384376 -0.00532904 0.010820413 0.04015416 -0.02544929 0.013135458
0.0215064 -0.023453498 -0.011197927 0.022262856 0.034085784 -0.007440701 0.016169673 -0.0016840014
-0.012691947 -0.0060855206 -0.006020552 -0.030273015 0.007047033 0.031366203 -0.025093004 -0.02791099
0.049622044 0.011585694 -0.016834138 0.03814021 -0.019620238 -0.0068899044 -0.008454967 0.045053
0.010145583 0.030574415 0.023696426 -0.0038355421 0.019307056 0.00524478 0.0027010862 0.00935654
0.03376914 0.027789427 -0.010587253 -0.024833625 0.03324364 0.011680386 -0.015440624 0.007838357
-0.009812824 -0.0074121077 -0.024973987 -0.005371744 0.016840735 0.0074274284 -0.015645094 -0.018236658
0.024107449 0.04483197 -0.019530881 -0.009186442 -0.039517462 0.008222294 0.008013067 0.03772876
0.018039929 0.034221042 0.04917451 0.0323246 0.040049806 -0.0068255505 -0.01976348 0.008946135
0.003680437 0.008241965 0.011918406 0.013198284 -0.021650054 0.0026123784 -0.022742486 0.014377014
0.007411688 -0.008562227 -0.02617631 0.014354254 0.018251933 0.007240335 0.027778909 -0.019080725
-0.003709562 0.017563544 0.0071349223 0.0086485 -0.017462336 0.031366374 0.03670261 -0.00903718

fc2.weight f4 [4, 128]
00000000: e2a9 40bd 8141 d1bb 0994 8f3d a616 463c
00000010: 04cf c43d 9ef2 0f3e 5a28 283e ae30 fb3b
00000020: 9e66 1c3e 6fb9 5bbe fd37 d43d 72ca ba3d
00000030: 0ecb 85bc 2ab2 fd3d 8fd1 ca3d 8b43 b7be
00000040: 4bd2 323d 4dd3 f33d 32fe d43d 3d19 85be
00000050: 79a9 c7bc 53d2 6a3e e1d1 e0bd 3e81 7c3d
00000060: fe29 9c3c 2234 d9bc 05ea eb3d 6c51 143e
00000070: e26b 0a3e b66e 90b8 3430 f13d cb7a 803c
00000080: 73fe ef3d a6ed 573d 48cd 413e 3ce8 023e
00000090: 4006 ee3d 691f 9c3c 3f23 0bbe edf1 7e3d
000000a0: f091 dbbd 5eb1 b6bd 012a 4fbe 4cfc 5dbe
000000b0: f1d3 73bc 075f 913d 4c3e c23d 9e99 65be
000000c0: 03fd d03d 02fd b2bd ae9c 4abd d23d 523e
000000d0: 010c e73d 4fe1 303d 42ff 18bc a51c bd3d
000000e0: 07a8 1f3d dfc5 a9bd 9683 5abd 23a0 a2bd
000000f0: 1caa bfbd 2644 0f3e 18f8 42be a553 c83d
00000100: 9868 443e 055c 8bbd 4930 afbd 3ddb 62be
00000110: dd79 263d 9595 113e e51e 4ebd c894 61be
00000120: 2c7f dabd 45cb abbd a382 8abe e5e5 083e
00000130: bf56 013e a8ce 0d3e 4b5f ac3d 9c01 49bc
00000140: 71f0 bb3d 2d8e e23d 9cd3 173d 54cc b0bd
00000150: 6bd9 59be 9477 b43d ae36 9b3d 31e1 f23c
00000160: 14b7 3bbe f329 8dbd 1d92 8cbc 6365 82be
00000170: 0525 583e a214 6bbe 9168 693d 6459 ed3c
00000180: 36b7 20be bc04 87be 0bce 35bd 4966 9d3d
00000190: 9115 bc3d f791 aa3d b96b 483e d9fd d83c
000001a0: 7d63 c03d 1e45 063e 9e27 7a3d 07e1 e4bd
000001b0: 6772 1f3e 13de 0ebe 1470 7abe de6f 24be
000001c0: 1bce 053e 2e76 a7bd 2c5c 93be 61a9 853c
000001d0: 68db 13be 26f9 45be 0003 5bbe a8ba d23d
000001e0: 8795 abbc 43a4 62bd 0ed2 cf3d 292c 0c3e
000001f0: 642a f2bd 97ef 6a3c c5eb 09bd 9199 df3b
00000200: 8be8 663e ebd4 043e 16e5 4abe 2994 55be
00000210: f093 3e3c 8881 e13d 9583 053e e557 94bb
00000220: 9ea6 48bc 6d47 04be eb18 1b3e b53b d8bd
00000230: 8ab4 1a3e bd42 42bc 43ff 8a3d f5e2 873c
00000240: 0241 5dbd d2f9 2fbe 60e6 8fbd aa15 2dbe
00000250: ee3f 64be 09ec ef3d 3a33 66be 2048 c63c
00000260: 4c2f 053d ead7 92bd 43e7 093e c1f7 893b
00000270: 0be6 453e 6a17 c4bb eebe 90bd 018b a63d
00000280: aa05 373d 70eb 9a3c 81d0 40be ebc7 913d
00000290: 0afd 39be 582a 873d 5186 17bb 2b8c aebc
000002a0: acb7 74be 17c5 1fbe 6a1f 31be 7f9c 423d
000002b0: ab61 4f3d 0850 13be 732d 203d 4217 293e
000002c0: 6091 33be a092 21bd e6d6 e53d d3b3 5b3e
000002d0: d7a9 a03d 4831 fd3c 1ce9 b1be fb86 a1bd
000002e0: 971b c93d 5f8b c3bd d9bf 87bd 3a94 8bbe
000002f0: bff2 a03d 1dbd 3fbe 490b 62be 9c95 bc3d
00000300: 0477 fe3b 1dc2 133e 84c2 8f3d b4d7 75be
00000310: fe40 013d 5998 cf3c 8743 8d3e 62da f73d
00000320: dd9a 553d 82ea 613e af62 173e a23a cfbd
00000330: 2cd6 cf3d 4b8e d8bd b7da 83bc 402f d83d
00000340: 8cbe 2c3e 9789 90bc 116c 8a3c 3298 a1bd
00000350: 87d6 92be 35f7 4dbd 7cf9 9f3d 9b9f 3abd
00000360: 91f4 2a3d 10ed cf3d 2ec3 e63d 1e47 2a3e
00000370: 22d7 c73d 5c84 4dbd 32f3 163c 5e6f 373d
00000380: d246 433d b702 033d 63a0 423d 189d a7bc
00000390: e8f5 063d 07ac 51be 81cb ff3d 84ba 173e
000003a0: 1402 393e 1660 7c3e 4f8a 99bd 5748 5bbe
000003b0: c8d9 c8bd 5659 03be 8ac2 6fbe b524 88be
000003c0: b492 bb3d f95e 1cbe 0f09 3abd 933e 2dbe
000003d0: ca9c 3b3d 2ae4 efbc 61d3 f8bd 08b5 27be
000003e0: ac18 923e 025c debe 2662 85bd 72b7 f53d
000003f0: f717 bc3c c784 d13d edfa 273e 9398 df3d
-0.047037013 -0.0063859825 0.07010657 0.012090361 0.096097976 0.14057395 0.16421643 0.007665715
0.1527352 -0.21457456 0.103622414 0.09120645 -0.016332176 0.12387498 0.099032514 -0.3579372
0.043657582 0.11905537 0.104000464 -0.25995818 -0.024372803 0.22931795 -0.10977531 0.061646692
0.019062992 -0.026514117 0.11519245 0.14484185 0.13517717 -6.8870766e-05 0.11776772 0.015683552
0.11718454 0.052716874 0.18925965 0.12783903 0.11622286 0.019057946 -0.13587664 0.062242437
-0.10721195 -0.08920549 -0.20230867 -0.21678275 -0.014882074 0.07098203 0.094845384 -0.22421882
0.10204508 -0.08739664 -0.049465828 0.20531395 0.112815864 0.04318362 -0.009338202 0.09233979
0.038978603 -0.08289694 -0.053348146 -0.079407 -0.09358618 0.1399084 -0.19039953 0.09781579
0.19180524 -0.06804661 -0.085541315 -0.22153945 0.04064356 0.14217217 -0.050322432 -0.22029412
-0.10668787 -0.0838838 -0.27052793 0.13368948 0.12630747 0.13848364 0.08416613 -0.01226845
0.0917672 0.11062274 0.03706704 -0.086327225 -0.21274345 0.0881187 0.07578789 0.029648395
-0.18331558 -0.06892767 -0.017159516 -0.25467977 0.21107872 -0.2295709 0.056984488 0.028973289
-0.1569489 -0.263708 -0.04438595 0.07685525 0.09183801 0.08328622 0.19572343 0.026488231
0.09393976 0.13112304 0.06107294 -0.11175733 0.15570985 -0.13951902 -0.24456817 -0.16058299
0.13066904 -0.08176838 -0.2878126 0.016316118 -0.14439166 -0.19333324 -0.21387863 0.10289508
-0.020945324 -0.055332433 0.101474866 0.13688721 -0.118244916 0.014339349 -0.033672113 0.0068237265
0.22549646 0.12971847 -0.19813952 -0.208573 0.011631951 0.11011034 0.13038476 -0.0045270794
-0.012246756 -0.12917872 0.15146224 -0.10558263 0.15107933 -0.011856732 0.067869686 0.016587714
-0.054017074 -0.17185143 -0.070263624 -0.16902795 -0.22290012 0.11714942 -0.22480479 0.024204314
0.03251581 -0.071700886 0.13467126 0.004210443 0.19326036 -0.0059842365 -0.07067667 0.08131982
0.044683136 0.018911093 -0.18829538 0.071182095 -0.18162933 0.06599873 -0.002312083 -0.021307072
-0.2389819 -0.15602528 -0.1729714 0.047512528 0.050630253 -0.14385998 0.039105844 0.16512778
-0.17535925 -0.039446473 0.11222629 0.21455316 0.078448944 0.030907288 -0.3474816 -0.078870736
0.098197155 -0.09548067 -0.06628389 -0.27261525 0.078588 -0.18724485 -0.22074617 0.09208223
0.0077656526 0.14429517 0.07019523 -0.24008065 0.031556122 0.0253412 0.27590582 0.121022
0.052149642 0.22062114 0.14783739 -0.10118605 0.10148272 -0.10574015 -0.016095502 0.10555887
0.16869563 -0.017643733 0.016897233 -0.07890357 -0.28679296 -0.050284583 0.07811257 -0.045562368
0.041737143 0.10152638 0.11267696 0.16628692 0.0975783 -0.050175056 0.009213256 0.044783942
0.04767496 0.03198501 0.047516238 -0.02046065 0.03294936 -0.2047578 0.12489987 0.14817244
0.18067199 0.24646029 -0.074970834 -0.21414314 -0.098071635 -0.12827048 -0.23414055 -0.26590505
0.09158841 -0.15270604 -0.045418795 -0.16918401 0.045803823 -0.029283602 -0.12149692 -0.16377652
0.28534448 -0.4342957 -0.06512861 0.1199788 0.022960646 0.102304034 0.16404314 0.10917773

fc2.bias f4 [4]
00000000: b307 93bd 1284 a4bc 4ae1 14bc fc64 5bbc
-0.07179203 -0.020082507 -0.009086916 -0.013390776
