results/ppo_partial_3x3/ppo_partial_3x3_weights.pt (torch, 972191 bytes, 11 tensors)

conv1.weight f4 [32, 4, 3, 3]
0.04765429 0.09293753 -0.11082584 -0.17601246 -0.006334762 0.01165835 -0.050646137 0.15071018
-0.0927902 0.08211435 -0.22913346 -0.64640033 -0.22769523 0.12561956 -0.4530316 0.20111787
0.1409412 0.1903429 -0.19172372 0.0077041574 0.045034606 0.20178802 -0.009278439 0.100700155
-0.11941353 0.033655178 0.083369315 -0.22919956 0.042202614 -0.012388316 -0.12796892 0.12529647
-0.14388858 0.019583438 -0.0463681 -0.24796331 -0.13412979 0.112172246 0.079760976 0.07925685
-0.028436651 -0.059454072 0.08614713 -0.15386155 -0.118035376 -0.37633348 0.30978778 0.2763273
-0.21013026 0.07029403 0.08866326 -0.07032167 -0.089668974 -0.08177728 0.16911782 -0.1523784
0.06699185 -0.2418535 -0.08276515 -0.10273788 0.11669163 0.09557963 -0.3103674 -0.06671964
0.09937774 0.0049309176 0.037394468 0.050412286 0.114176564 0.19644079 -0.030822627 -0.05665387
0.076359764 0.15769821 0.10602409 0.15737168 -0.003187278 -0.143038 0.02760672 -0.15712231
-0.1874388 0.31771418 0.248081 -0.38443655 0.13810377 -0.08909956 -0.24241892 -0.16082272
-0.31576246 -0.58946013 -0.025405746 0.04371984 0.16658103 0.05846695 -0.05396977 -0.1198808
0.046512216 0.0526309 -0.19379778 -0.10293482 0.13480158 0.10369439 -0.11506868 -0.04802564
-0.20504631 0.004804483 -0.024100196 -0.008644946 0.033616982 0.03439102 -0.13877863 0.1296277
-0.089666344 0.11602203 0.12106194 -0.10885252 -0.09005674 0.13355632 -0.08100349 0.14246716
0.20054342 -0.037699066 -0.21762964 0.21274273 -0.20129478 -0.29605082 -0.11833572 -0.0029532406
0.06435851 -0.107699074 -0.13803077 0.023024326 -0.08170334 0.031434022 0.13172622 0.11179568
0.07562469 -0.046538368 0.1303693 0.12691031 0.12591402 0.13018546 0.073481135 -0.03585204
-0.30953518 -0.056368724 0.11592313 -0.17835145 -0.21577053 -0.260833 -0.18693207 -0.06793881
0.050047204 -0.19782375 0.17968158 -0.08627986 -0.17704104 -0.12530248 -0.21388966 -0.13296223
0.16818783 0.15293607 -0.12474526 -0.16816248 0.066283874 0.12836267 -0.13556351 0.058079243
-0.1212027 -0.09535941 0.1269352 0.077244595 0.13438305 -0.014365051 -0.15041016 0.13796146
0.04208854 -0.1563466 0.21831574 -0.17192648 0.010245888 0.009239559 0.16146307 -0.014356432
0.028698878 0.03349323 -0.054940507 -0.084535 -0.11895414 0.019744834 0.24669775 0.2889806
-0.3424562 -0.20423208 -0.010460433 -0.3489424 -0.26130733 -0.20734303 -0.101440966 -0.072711036
0.020890038 0.17609131 -0.1495308 0.0264169 -0.12529586 0.13029554 -0.0068979394 0.1151305
0.048986632 0.014757898 -0.020295152 0.02749539 0.003211478 -0.036501326 0.004089344 -0.033472437
-0.12726341 -0.13145055 0.15455905 -0.13104662 -0.08420398 0.10905236 0.1009608 0.027639953
-0.23590212 -0.19755358 -0.26293913 -0.07483954 -0.39121276 -0.12573493 -0.16843115 0.08955493
-0.142187 0.30050433 0.11389551 -0.071978636 0.073301844 -0.28760493 -0.11829512 0.11824909
0.053330205 0.058719072 -0.19141613 0.10836283 0.07082555 -0.16129343 0.15895697 -0.10124655
-0.0059564146 0.1318541 -0.13868192 -0.020655897 0.12441433 -0.14950448 -0.14386034 -0.03953969
00000000: 2531 433d 0856 be3d a8f8 e2bd 9c3c 34be
00000010: d693 cfbb aa02 3f3c 5372 4fbd c553 1a3e
00000020: ca08 bebd 912b a83d f6a1 6abe 7e7a 25bf
00000030: f028 69be 6aa2 003e c2f3 e7be d8f1 4d3e
00000040: e452 103e 40e9 423e 3953 44be 2873 fc3b
00000050: 3576 383d 85a1 4e3e 9804 18bc e23b ce3d
00000060: 158f f4bd 03da 093d 88bd aa3d 4ab3 6abe
00000070: a6dc 2c3d 5df8 4abc 490a 03be b84d 003e
00000080: 8757 13be 726d a03c 7aec 3dbd 18ea 7dbe
00000090: 5259 09be 90ba e53d b959 a33d 6a51 a23d
000000a0: fbf3 e8bc 1d86 73bd e86d b03d e28d 1dbe
000000b0: 88bc f1bd c8ae c0be 819c 9e3e c67a 8d3e
000000c0: 632c 57be 51f6 8f3d 1595 b53d cf04 90bd
000000d0: 5ea4 b7bd d97a a7bd 392d 2d3e 1509 1cbe
000000e0: 0633 893d 72a8 77be c680 a9bd 3d68 d2bd
000000f0: 05fc ee3d 41bf c33d 7ae8 9ebe 4ea4 88bd
00000100: 8e86 cb3d 8993 a13b f12a 193d 1d7d 4e3d
00000110: 67d5 e93d c627 493e bc7f fcbc e30d 68bd
00000120: 8262 9c3d a47b 213e 2823 d93d 0b26 213e
00000130: a7e1 50bb 8e78 12be 7d27 e23c ace4 20be
00000140: f5ef 3fbe 6fab a23e f208 7e3e ded4 c4be
00000150: 136b 0d3e d579 b6bd aa3c 78be b6ae 24be
00000160: 9eab a1be dce6 16bf b61f d0bc 9313 333d
00000170: 3894 2a3e 0a7b 6f3d 680f 5dbd 1184 f5bd
00000180: 9883 3e3d 8093 573d ed72 46be 7ecf d2bd
00000190: 6d09 0a3e b95d d43d 21a9 ebbd 89b6 44bd
000001a0: a9f7 51be ed6e 9d3b c66d c5bc 88a3 0dbc
000001b0: f6b1 093d 99dd 0c3d fc1b 0ebe 20bd 043e
000001c0: fda2 b7bd f59c ed3d 53ef f73d 12ee debd
000001d0: ab6f b8bd fdc2 083e 28e5 a5bd e9e2 113e
000001e0: 415b 4d3e 566a 1abd 4eda 5ebe 3bd9 593e
000001f0: 3820 4ebe f993 97be ff59 f2bd 288b 41bb
00000200: 65ce 833d 5591 dcbd f057 0dbe 839d bc3c
00000210: 1554 a7bd f6c0 003d 3de3 063e 22f5 e43d
00000220: 1ee1 9a3d 049f 3ebd 887f 053e c7f4 013e
00000230: 9bef 003e 564f 053e 477d 963d 97d9 12bd
00000240: 657b 9ebe e4e2 66bd 1b69 ed3d c3a1 36be
00000250: f3f2 5cbe e78b 85be 1f6b 3fbe 8123 8bbd
00000260: 4cfe 4c3d 4f92 4abe 73fe 373e 7fb3 b0bd
00000270: 3f4a 35be 4b4f 00be e405 5bbe 4027 08be
00000280: 6e39 2c3e 469b 1c3e 717a ffbd c932 2cbe
00000290: d7bf 873d 8171 033e 29d1 0abe 80e4 6d3d
000002a0: 1f39 f8bd cb4b c3bd 4dfb 013e 6a32 9e3d
000002b0: b69b 093e 645b 6bbc 1f05 1abe c545 0d3e
000002c0: 0865 2c3d 5319 20be 298e 5f3e 7f0d 30be
000002d0: 5ede 273c 8561 173c 9356 253e 3d37 6bbc
000002e0: e919 eb3c 3230 093d 4c09 61bd b020 adbd
000002f0: 3a9e f3bd ebbf a13c 569e 7c3e 44f5 933e
00000300: 6b56 afbe 3722 51be 3c62 2bbc 94a8 b2be
00000310: 13ca 85be bb51 54be 48c0 cfbd 86e9 94bd
00000320: 9621 ab3c 4851 343e 9a1e 19be 4168 d83c
00000330: 8f4d 00be 326c 053e 1c08 e2bb 8ac9 eb3d
00000340: 35a6 483d 1ccb 713c 0542 a6bc 033e e13c
00000350: a977 523b 6a82 15bd e7ff 853b 651a 09bd
00000360: 5751 02be f99a 06be ba44 1e3e 1631 06be
00000370: 2373 acbd d856 df3d 89c4 ce3d 2f6d e23c
00000380: 5390 71be 7c4b 4abe f59f 86be 7945 99bd
00000390: 0a4d c8be a8c0 00be 3779 2cbe 9368 b73d
000003a0: 7899 11be b4db 993e 0d42 e93d 8969 93bd
000003b0: 471f 963d f440 93be b644 f2bd 942c f23d
000003c0: c670 5a3d 6983 703d 9702 44be 55ed dd3d
000003d0: fc0c 913d 1b2a 25be 9ec5 223e 5a5a cfbd
000003e0: 072e c3bb c304 073e a202 0ebe 8e36 a9bc
000003f0: f1cc fe3d b417 19be 2050 13be 5ff4 21bd

conv1.bias f4 [32]
-0.14518647 0.018614165 0.12416403 -0.12930755 -0.01547932 0.15180732 -0.00030910652 0.1450438
-0.12622117 -0.17005129 -0.124896735 0.12164407 0.11757579 -0.11983078 0.019080011 0.028575797
-0.08755841 -0.11030611 -0.05600965 0.086391576 -0.059842877 -0.022804497 -0.054572683 -0.097679935
0.005367793 -0.019363 0.01227455 -0.13858654 -0.045912135 -0.104036294 0.068256825 -0.17645085
00000000: c3ab 14be bc7c 983c b649 fe3d 3369 04be
00000010: f99c 7dbc 6173 1b3e 930f a2b9 5d86 143e
00000020: 1f40 01be ed21 2ebe dcc9 ffbd 8720 f93d
00000030: 93cb f03d d769 f5bd af4d 9c3c ca17 ea3c
00000040: d351 b3bd 2be8 e1bd 606a 65bd 11ee b03d
00000050: ce1d 75bd 7fd0 babc 9b87 5fbd 6b0c c8bd
00000060: 50e4 af3b 279f 9ebc 321b 493c a1e9 0dbe
00000070: 5d0e 3cbd fb10 d5bd 3cca 8b3d 88af 34be

conv2.weight f4 [64, 32, 3, 3]
-0.1149302 0.031584207 0.12652378 0.08956745 -0.04151651 -0.057548154 0.09708754 0.006698175
0.15184587 0.20372018 -0.02542145 -0.25356117 -0.06475798 -0.052283123 -0.060866926 -0.027273703
-0.06838992 -0.082232215 0.08630781 -0.12735778 -0.007476529 -0.024203122 -0.049509328 0.02703229
-0.04979134 -0.10154154 -0.024900882 0.022615045 0.021711668 -0.088571765 0.004241732 -0.053434573
0.058954846 0.113863684 -0.07806384 0.12474427 0.03733047 -0.20437706 0.051981594 0.01660017
-0.08590569 0.047738425 -0.11928979 -0.027954442 -0.152629 -0.08668534 -0.098085664 0.037741974
-0.0140073085 -0.08388626 -0.070112474 -0.10610319 -0.057766054 -0.024116911 0.018820481 -0.16882895
-0.18451448 -0.0734975 -0.073929295 -0.077235244 -0.1288617 -0.037542738 -0.16833974 -0.103325024
-0.028318647 -0.061685335 0.04274891 -0.008098583 -0.114432186 -0.08863813 -0.004979484 -0.18680696
0.11108579 0.011917373 0.040773284 0.20966205 0.059436724 -0.016192866 0.22486317 0.016994122
0.02904861 -0.03171064 0.094798915 0.11281577 0.06948325 0.13534199 -0.0007962467 0.13473701
-0.15345779 -0.093981765 -0.019855555 -0.19402805 -0.34086573 0.0031455015 -0.1620616 -0.093736865
-0.011985569 0.06989392 0.049810413 0.0890439 0.028949577 0.055711553 0.038384482 0.038358074
-0.00580867 -0.003637453 0.052298795 0.13958763 -0.14599319 -0.09890502 -0.1310766 -0.1847181
0.07654719 -0.1974082 0.048025046 -0.24717124 -0.10958804 0.0698337 -0.095686644 -0.10505249
0.057712123 0.05652382 -0.062632516 -0.03731348 -0.026989803 0.14592202 0.11384555 -0.021489978
-0.07889617 0.04666658 -0.057941876 -0.057394024 -0.15611343 -0.011810951 -0.018046534 -0.089273274
0.08016559 -0.0462317 -0.080508634 -0.00081738475 0.019976206 0.018859204 -0.0126741165 0.00907799
0.044322114 -0.021960864 -0.1590135 -0.057714894 0.14796181 0.04708122 -0.045907356 0.00014604931
-0.027092483 0.059637066 -0.03870585 -0.13836877 -0.016357644 -0.009104509 0.005980877 0.03216505
0.030056 0.0417258 -0.016336352 -0.18442689 -0.062011022 0.15705854 0.09537461 0.03227581
0.04881158 -0.0054546013 -0.06424157 -0.03443042 -0.043823857 0.034002956 -0.0058491724 -0.04174578
-0.10910159 0.06891019 -0.14124632 -0.037956204 -0.02729291 0.07212068 0.13509078 -0.027881533
-0.039967787 0.026510587 0.027992595 0.022467846 -0.046008814 -0.042782746 -0.047399145 -0.06559481
-0.10654369 -0.04135246 0.014075694 0.012515413 0.07150623 -0.27053833 0.16326267 -0.23640265
0.1588081 0.24236599 0.0376802 -0.2074709 -0.017809281 0.008978351 -0.21266595 0.12325256
0.10304876 -0.015658164 0.13200998 0.066323355 -0.054788742 0.013266144 0.025135348 -0.07988705
0.07327348 0.038180046 -0.09696472 0.107132964 0.08178616 0.009316565 0.033088658 -0.02676103
-0.07664158 -0.077401996 -0.0020265311 0.11692881 0.054821618 0.050889656 0.06896686 -0.039351422
-0.022232648 -0.0636102 -0.25090438 -0.12670985 -0.20773938 -0.1465451 -0.046742942 -0.034163974
-0.08494766 -0.0036798476 0.0057162195 0.0052140187 -0.19359376 -0.029147273 -0.01564163 -0.14238176
0.04833256 0.03685149 -0.03534962 0.0022458448 -0.19391425 -0.12660523 -0.09796607 0.020909289
00000000: 8660 ebbd 715e 013d 738f 013e 246f b73d
00000010: 370d 2abd 9db7 6bbd d5d5 c63d 5d7c db3b
00000020: 7c7d 1b3e 069c 503e a540 d0bc c5d2 81be
00000030: d59f 84bd d426 56bd 994f 79bd 1a6d dfbc
00000040: 0410 8cbd 5d69 a8bd 26c2 b03d 146a 02be
00000050: acfd f4bb a045 c6bc 4bca 4abd d272 dd3c
00000060: 01f2 4bbd 03f5 cfbd effc cbbc 3043 b93c
00000070: abdc b13c 1d65 b5bd 3afe 8a3b 36de 5abd
00000080: a37a 713d 5d31 e93d efdf 9fbd ed79 ff3d
00000090: d6e7 183d 3848 51be a7ea 543d 14fd 873c
000000a0: 53ef afbd 5e89 433d 354e f4bd b700 e5bc
000000b0: c74a 1cbe 1588 b1bd 23e1 c8bd 5497 1a3d
000000c0: e97e 65bc 8fcc abbd 2197 8fbd a14c d9bd
000000d0: 199c 6cbd d490 c5bc 692d 9a3c 7fe1 2cbe
000000e0: 5df1 3cbe db85 96bd 3e68 97bd 832d 9ebd
000000f0: 52f4 03be 6ac6 19bd 4161 2cbe 129c d3bd
00000100: 82fc e7bc c3a9 7cbd 7b19 2f3d ebaf 04bc
00000110: 6c5b eabd e887 b5bd f02a a3bb 534a 3fbe
00000120: f280 e33d 1641 433c e301 273d a6b1 563e
00000130: ec73 733d e7a6 84bc 8842 663e 4237 8b3c
00000140: 5af7 ed3c 04e3 01bd ef25 c23d f40b e73d
00000150: 3c4d 8e3d 1797 0a3e 36bb 50ba 80f8 093e
00000160: 0a24 1dbe 8379 c0bd 1ea8 a2bc 4aaf 46be
00000170: f485 aebe c224 4e3b 7af3 25be 1df9 bfbd
00000180: 1f5f 44bc 8b24 8f3d 0106 4c3d a65c b63d
00000190: aa27 ed3c cc31 643d 0c39 1d3d 5b1d 1d3d
000001a0: a856 bebb 5662 6ebb 4337 563d 0ff0 0e3e
000001b0: 3d7f 15be b78e cabd f238 06be be26 3dbe
000001c0: c6c4 9c3d 6025 4abe e9b5 443d 751a 7dbe
000001d0: b26f e0bd f904 8f3d 5cf7 c3bd c325 d7bd
000001e0: 8c63 6c3d 8585 673d 7a45 80bd 05d6 18bd
000001f0: b819 ddbc 956c 153e db27 e93d c00b b0bc
00000200: 5194 a1bd 7525 3f3d 7654 6dbd ff15 6bbd
00000210: 33dc 1fbe b882 41bc 53d6 93bc e8d4 b6bd
00000220: db2d a43d 735d 3dbd b6e1 a4bd c345 56ba
00000230: 24a5 a33c 9e7e 9a3c 19a7 4fbc dabb 143c
00000240: 1b8b 353d 45e7 b3bc 6fd4 22be 7466 6cbd
00000250: 4d83 173e 3dd8 403d 5a09 3cbd d024 1939
00000260: 0ef1 ddbc ff45 743d 068a 1ebd 8bb0 0dbe
00000270: 7700 86bc 142b 15bc 3cfb c33b 80bf 033d
00000280: 0038 f63c ace8 2a3d d0d3 85bc 67da 3cbe
00000290: 45ff 7dbd f4d3 203e c353 c33d a433 043d
000002a0: a7ee 473d 83bc b2bb 1691 83bd e906 0dbd
000002b0: a580 33bd af46 0b3d 6aaa bfbb 9ffd 2abd
000002c0: a870 dfbd c920 8d3d e0a2 10be f777 1bbd
000002d0: 6195 dfbc 02b4 933d 3d55 0a3e d067 e4bc
000002e0: 43b5 23bd bb2c d93c ba50 e53c 7d0e b83c
000002f0: bd73 3cbd f63c 2fbd 9b25 42bd 9256 86bd
00000300: 9433 dabd 3261 29bd bd9d 663c 720d 4d3c
00000310: dc71 923d 0084 8abe 542e 273e 8913 72be
00000320: 979e 223e ca2e 783e 8e56 1a3d 4073 54be
00000330: c5e4 91bc ef19 133c 1ac5 59be d76b fc3d
00000340: 3a0b d33d 8d45 80bc a02d 073e 8ad4 873d
00000350: 296a 60bd 3e5a 593c a5e8 cd3c d29b a3bd
00000360: 6810 963d ae62 1c3d 7095 c6bd 8768 db3d
00000370: 817f a73d 81a4 183c f987 073d f339 dbbc
00000380: 43f6 9cbd f084 9ebd 8dcf 04bb 5f78 ef3d
00000390: a28c 603d ac71 503d 7f3e 8d3d f52e 21bd
000003a0: 3e21 b6bc 1146 82bd 8a76 80be 3ac0 01be
000003b0: a2b9 54be eb0f 16be 8775 3fbd 86ef 0bbd
000003c0: 0af9 adbd 9929 71bb 204f bb3b 5cda aa3b
000003d0: 713d 46be 43c6 eebc e022 80bc 86cc 11be
000003e0: 5df8 453d 97f1 163d c3ca 10bd 062f 133b
000003f0: 7591 46be cda4 01be 6fa2 c8bd f549 ab3c

conv2.bias f4 [64]
0.011344635 -0.05942458 0.05333501 0.021493975 0.008427522 0.101843245 0.13878638 0.083981976
-0.08458637 -0.07985856 -0.07134051 -0.07273367 -0.0352863 -0.0868413 0.039407328 -0.037191253
-0.022628149 -0.028583733 -0.06309538 0.060100395 0.037656747 -0.01770357 0.10188485 0.0008973516
-0.09816133 -0.00921086 0.045175504 0.09459276 -0.075969756 0.065943874 -0.045526784 0.03275197
-0.026656952 -0.041171115 -0.018924342 -0.06991775 -0.0108413 0.11067871 -0.09418736 0.108246736
0.05676408 0.056919556 0.030703837 -0.03364911 0.025065606 0.093694694 0.013810706 0.04236909
0.055388797 0.07462308 -0.04428686 -0.030694155 -0.0740516 0.028386282 -0.062361777 0.04993148
0.06637183 -0.0151044745 -0.08360854 0.046737082 0.11557585 0.07742293 -0.008644511 0.009054838
00000000: d9de 393c 3067 73bd d075 5a3d 2214 b03c
00000010: 9713 0a3c 3193 d03d 041e 0e3e befe ab3d
00000020: 9e3b adbd e28c a3bd f91a 92bd 64f5 94bd
00000030: 5e88 10bd dad9 b1bd 9469 213d db55 18bd
00000040: ab5e b9bc 6f28 eabc 2738 81bd d52b 763d
00000050: f63d 1a3d 1407 91bc 01a9 d03d 3f3c 6b3a
00000060: cf08 c9bd 26e9 16bc f309 393d d9b9 c13d
00000070: 0896 9bbd 950d 873d 4b7a 3abd ee26 063d
00000080: ae5f dabc 0ba3 28bd 3907 9bbc 0a31 8fbd
00000090: b59f 31bc 85ab e23d 4de5 c0bd 77b0 dd3d
000000a0: 7481 683d 7b24 693d 9d86 fb3c a6d3 09bd
000000b0: 6356 cd3c 01e3 bf3d 4d46 623c 368b 2d3d
000000c0: 5ddf 623d fcd3 983d 2366 35bd 4f72 fbbc
000000d0: 5ea8 97bd 598a e83c 106f 7fbd f484 4c3d
000000e0: f4ed 873d c278 77bc f43a abbd 626f 3f3d
000000f0: 08b3 ec3d ea8f 9e3d b5a1 0dbc be5a 143c

conv3.weight f4 [128, 64, 3, 3]
-0.00981143 0.06281068 0.02440568 0.033764802 0.08354283 -0.0020409417 -0.014875403 0.024594635
0.04038342 -0.04187466 -0.021474475 -0.16842695 -0.035534482 -0.26125485 -0.12825596 0.04488387
-0.045489807 -0.08687185 -0.23508786 -0.047461633 -0.14254697 0.041564304 0.06837921 -0.077779114
-0.034097113 0.023138182 -0.029222982 -0.15597992 0.02404849 0.05460978 0.04259656 0.004957216
-0.043346494 0.09012581 -0.059401307 0.038108975 -0.1424205 -0.008331705 -0.24043538 -0.118550405
0.0027923663 0.040531334 0.00030833113 0.08061172 -0.12932041 0.12308041 0.059200734 0.028792156
-0.009442299 0.060145084 -0.06435698 0.051079538 0.0997527 -0.16296612 0.0025175388 -0.065559536
-0.010429826 0.0936177 0.037672922 -0.08160502 0.027950335 0.007220071 -0.04697618 0.12754746
-0.05957407 0.06401229 -0.049582623 -0.078076646 -0.059717547 0.0040511643 0.05954931 -0.019958673
0.017171329 -0.005339371 0.094094366 -0.05660448 -0.053477895 -0.10528202 0.06324075 -0.109009735
0.056488853 -0.18434505 0.0159409 -0.056006603 0.080384515 0.055187758 0.017611662 -0.01657927
-0.05213693 -0.14691009 -0.19916403 0.039240606 -0.047987398 -0.012204258 0.04677199 -0.03499025
0.0031788275 -0.09723269 -0.07013884 0.096855424 0.0055395733 0.21468745 -0.059070844 0.07875098
0.08007022 -0.037970234 -0.0356207 -0.08786573 0.0044389106 -0.12968504 0.04534158 0.049370967
0.0067936834 0.020157801 0.029858546 -0.14832819 0.053624935 0.06471122 -0.06859053 0.056616962
0.0013379307 0.14395243 0.049874444 -0.036436733 -0.006638506 0.019411873 0.008900701 0.021843592
-0.11079433 -0.10041691 0.060066078 -0.061199427 0.04749467 -0.034460165 0.04398626 0.05618018
-0.05896908 0.021648819 0.097990125 -0.058617286 -0.21615583 -0.025727838 -0.041812535 -0.092616625
-0.11856347 0.19552283 0.06798697 0.025376415 -0.011071933 0.13805945 0.015530906 -0.04240492
-0.05426463 -0.008248091 -0.17441033 -0.06461733 0.016339252 0.00075675745 -0.012757507 0.05562443
0.06953575 -0.043171223 -0.2206994 0.082997166 0.022689845 0.11359752 -0.030147383 -0.018378347
-0.08963306 0.00085541676 0.071034774 -0.0024094114 -0.03457421 -0.060863357 0.07596383 0.05609391
-0.017738424 -0.022419361 -0.07231366 -0.08899061 -0.13483721 0.024940182 -0.15336752 0.104982704
0.017267017 -0.026680749 0.026004447 -0.0052971905 -0.047683463 -0.1468929 0.06432814 -0.14204335
-0.12076378 0.020185588 0.097783566 0.10153665 0.045236956 0.08495432 -0.09749721 -0.163999
-0.11690585 -0.11964745 0.14925857 -0.19382784 0.007614927 -0.11173159 -0.102800936 -0.11107635
-0.046412006 -0.08838449 0.021880494 -0.0025181775 -0.100845575 -0.016446441 -0.035717264 -0.072111115
-0.042964637 0.101773806 0.1482744 -0.010208317 -0.1672687 -0.060784288 -0.07975193 -0.07211161
-0.017916568 0.008121903 -0.048033383 0.17781681 0.00713956 0.035936534 -0.057337932 -0.026765047
0.00019644537 -0.03799222 0.011893653 -0.08729616 -0.012097779 -0.032756403 -0.16451158 -0.08555187
0.06980284 0.07495618 -0.044962063 0.04546883 0.058554012 -0.025944233 -0.010927056 -0.045272462
0.02371572 -0.079431586 -0.038207904 -0.09596169 -0.032898985 -0.058352515 0.03928898 0.075391635
00000000: 1fc0 20bc e3a2 803d 6cee c73c f64c 0a3d
00000010: 8118 ab3d 52c1 05bb f6b7 73bc b07a c93c
00000020: 1669 253d c384 2bbd 3deb afbc 1d78 2cbe
00000030: 9b8c 11bd 32c3 85be 8855 03be 26d8 373d
00000040: 8553 3abd dee9 b1bd dfba 70be 2167 42bd
00000050: d5f7 11be 553f 2a3d 660a 8c3d a84a 9fbd
00000060: 6aa9 0bbd 498c bd3c 0965 efbc 33b9 1fbe
00000070: 5701 c53c 81ae 5f3d bb79 2e3d 2470 a23b
00000080: 188c 31bd e193 b83d c94e 73bd 2818 1c3d
00000090: aed6 11be b481 08bc b134 76be 8eca f2bd
000000a0: 2200 373b 2f04 263d 81a7 a139 c217 a53d
000000b0: 926c 04be 9511 fc3d 787c 723d 87dd eb3c
000000c0: dfb3 1abc b15a 763d 98cd 83bd c738 513d
000000d0: 254b cc3d 97e0 26be 4bfd 243b 1444 86bd
000000e0: dce1 2abc a3ba bf3d ec4e 1a3d 8820 a7bd
000000f0: 1af8 e43c 5896 ec3b 186a 40bd cd9b 023e
00000100: f103 74bd e018 833d 2617 4bbd a6e6 9fbd
00000110: 639a 74bd a1bf 843b fae9 733d 5f80 a3bc
00000120: e3aa 8c3c e4f5 aebb 8cb4 c03d 19da 67bd
00000130: a30b 5bbd 1a9e d7bd 5e84 813d 7f40 dfbd
00000140: db60 673d f3c4 3cbe 7e96 823c 2e67 65bd
00000150: a3a0 a43d 8f0c 623d 5546 903c 40d1 87bc
00000160: 898d 55bd 996f 16be a8f1 4bbe c2ba 203d
00000170: 6f8e 44bd 5ef4 47bc fc93 3f3d f051 0fbd
00000180: e053 503b ef21 c7bd f4a4 8fbd 235c c63d
00000190: 4f85 b53b 07d7 5b3e 45f4 71bd 3248 a13d
000001a0: dbfb a33d ad86 1bbd 03e7 11bd f3f2 b3bd
000001b0: 4874 913b 28cc 04be 18b8 393d 3639 4a3d
000001c0: 8c9d de3b f921 a53c e999 f43c 58e3 17be
000001d0: d2a5 5b3d 5187 843d 3179 8cbd 30e7 673d
000001e0: 815d af3a 4468 133e 2549 4c3d af3e 15bd
000001f0: d387 d9bb a605 9f3c 3fd4 113c 55f1 b23c
00000200: 23e8 e2bd 62a7 cdbd d907 763d 40ac 7abd
00000210: c589 423d 1a26 0dbd f02a 343d 301d 663d
00000220: 9089 71bd dd58 b13c 0caf c83d ae18 70bd
00000230: f457 5dbe 30c3 d2bc 9f43 2bbd c9ad bdbd
00000240: 68d1 f2bd 2337 483e c13c 8b3d 33e2 cf3c
00000250: 0e67 35bc 755f 0d3e 5775 7e3c c8b0 2dbd
00000260: 9744 5ebd 0023 07bc 9f98 32be 1756 84bd
00000270: e5d9 853c 2261 463a dd04 51bc 71d6 633d
00000280: c268 8e3d 4fd4 30bd 06ff 61be 6bfa a93d
00000290: 0ee0 b93c d1a5 e83d a5f7 f6bc 308e 96bc
000002a0: 8a91 b7bd 0c3e 603a ae7a 913d 37e7 1dbb
000002b0: b09d 0dbd db4b 79bd ed92 9b3d bac2 653d
000002c0: 2c50 91bc cfa8 b7bc 2f19 94bd b540 b6bd
000002d0: c412 0abe 5a4f cc3c 600c 1dbe 2c01 d73d
000002e0: 8f73 8d3c 9691 dabc 4707 d53c 0e94 adbb
000002f0: bc4f 43bd 186b 16be 79be 833d d073 11be
00000300: 0053 f7bd 3f5c a53c c042 c83d 72f2 cf3d
00000310: 634a 393d 88fc ad3d 9eac c7bd 5bef 27be
00000320: 566c efbd b909 f5bd 3dd7 183e ce7a 46be
00000330: a386 f93b 88d3 e4bd 4c89 d2bd ff7b e3bd
00000340: 841a 3ebd ed02 b5bd b93e b33c 0208 25bb
00000350: 2088 cebd b0ba 86bc 444c 12bd feae 93bd
00000360: b0fb 2fbd c96e d03d 3fd5 173e c940 27bc
00000370: 7c48 2bbe f2f8 78bd fb54 a3bd 40af 93bd
00000380: c4c5 92bc bb11 053c a7be 44bd 9c15 363e
00000390: f8f2 e93b 3032 133d 2edb 6abd 5f42 dbbc
000003a0: e7fc 4d39 bb9d 1bbd 99dd 423c 54c8 b2bd
000003b0: c335 46bc 942b 06bd b975 28be d235 afbd
000003c0: cbf4 8e3d a082 993d 242a 38bd 863d 3a3d
000003d0: 55d6 6f3d 0089 d4bc 6507 33bc 9e6f 39bd
000003e0: 7847 c23c 07ad a2bd e47f 1cbd 9087 c4bd
000003f0: 16c1 06bd 0c03 6fbd 7bed 203d ee66 9a3d

conv3.bias f4 [128]
0.042164523 -0.010821099 0.13405418 0.19776036 0.111719824 0.0937784 0.105584145 0.06402317
-0.055886205 0.07508261 0.18114834 0.17322643 0.15203348 -0.029093262 -0.18773045 0.16452356
0.042453393 0.17225043 0.17082424 0.18109614 0.054267097 0.15690742 0.101307094 0.06086971
0.10456362 0.17221074 -0.050008163 0.09709416 0.10319196 -0.03317956 0.13772139 0.15866643
0.10420739 -0.1091308 0.14904232 0.08995957 0.084584996 -0.043813355 0.06172055 0.06759968
0.060789604 0.099581905 0.014130121 -0.14088853 0.10502144 0.021287935 0.113181144 0.13074465
0.1287531 0.15242015 0.07970213 0.08034541 0.20615336 0.14681335 0.19852716 0.06440126
0.12712526 0.15171742 0.15817988 0.18091328 -0.06410934 0.14519365 0.050335426 0.045778617
0.1417451 0.117913246 0.026872467 0.12561743 0.09921019 0.0814552 0.1392256 0.12463929
-0.057074834 0.050801802 0.022322029 0.18482727 0.097211204 0.07062883 0.17720047 0.025739646
0.19526142 0.05063535 0.14865418 0.07978295 0.101427704 0.13712864 -0.03526911 0.049665567
0.057494856 -0.046391044 -0.078840084 -0.043705113 -0.07095135 0.13461325 0.056923572 0.19504842
0.17869663 0.18886088 0.20353965 0.020046096 0.19439872 0.044802994 0.15697648 0.13889311
-0.05478364 -0.005437308 0.026618907 0.15018936 0.08306213 0.10911679 -0.0419468 0.11389017
0.206468 0.024651524 0.112582155 0.08744073 0.12936458 0.00020181313 0.07386911 0.012591414
0.051243775 0.16647905 0.2180094 -0.08956419 0.037051972 0.11338769 0.033392128 0.12518945
00000000: b5b4 2c3d fb4a 31bc 8045 093e b181 4a3e
00000010: 5dcd e43d e40e c03d 803c d83d 941e 833d
00000020: efe8 64bd e9c4 993d f37e 393e 4562 313e
00000030: aaae 1b3e fe54 eebc 693c 40be dd78 283e
00000040: 9ce3 2d3d 6b62 303e 8dec 2e3e 4471 393e
00000050: 2d47 5e3d 57ac 203e 187a cf3d 8452 793d
00000060: 7425 d63d 0358 303e 5cd5 4cbd 4ed9 c63d
00000070: 4e56 d33d 4ae7 07bd d606 0d3e 7479 223e
00000080: af6a d53d f87f dfbd 8d9e 183e b93c b83d
00000090: e63a ad3d a275 33bd b0ce 7c3d b371 8a3d
000000a0: 85fe 783d 99f1 cb3d 0682 673c 1545 10be
000000b0: 7b15 d73d 0964 ae3c 84cb e73d ede1 053e
000000c0: dad7 033e 0714 1c3e df3a a33d 228c a43d
000000d0: de19 533e 3d56 163e b44a 4b3e cfe4 833d
000000e0: 202d 023e d05b 1b3e e8f9 213e 5541 393e
000000f0: c24b 83bd a5ad 143e 852c 4e3d 5c82 3b3d
00000100: a125 113e 807c f13d a623 dc3c dba1 003e
00000110: b62e cb3d fcd1 a63d 2891 0e3e e242 ff3d
00000120: 4dc7 69bd 8d15 503d b0dc b63c 5c43 3d3e
00000130: ab16 c73d d9a5 903d 0a74 353e f3db d23c
00000140: 9cf2 473e 0367 4f3d cd38 183e 3e65 a33d
00000150: 54b9 cf3d 736b 0c3e 5876 10bd 1f6e 4b3d
00000160: ba7f 6b3d 8904 3ebd e976 a1bd 2204 33bd
00000170: f14e 91bd 0ed8 093e b128 693d c6ba 473e
00000180: 40fc 363e bf64 413e b36c 503e b637 a43c
00000190: 7510 473e 5883 373d 71be 203e ff39 0e3e
000001a0: cf64 60bd 722b b2bb e50f da3c 3dcb 193e
000001b0: 7a1c aa3d a078 df3d 68d0 2bbd 403f e93d
000001c0: 596c 533e fef1 c93c 7991 e63d 2014 b33d
000001d0: 2678 043e cd9d 5339 b048 973d 384c 4e3c
000001e0: fee4 513d 7c79 2a3e db3d 5f3e 6e6d b7bd
000001f0: cfc3 173d ce37 e83d 2fc6 083d aa31 003e

fc.weight f4 [128, 1152]
-0.0026937807 0.016777845 -0.03043467 -0.0175224 -0.029579636 -0.009123074 -0.00702228 -0.0027447517
0.0126993675 -0.012775876 0.017363943 0.028130384 -0.02710937 0.004760532 0.01719158 -0.011071809
0.007908916 0.0035304097 -0.031748842 0.025117744 -0.03620746 0.010071779 -0.007496149 -0.018433407
-0.02778617 -0.03102295 0.015075903 0.0040864074 -0.0008272533 0.008485953 0.014932457 -0.034176525
-0.019815654 -0.017252712 0.010006176 -0.028132865 0.012578349 0.015369933 0.010242489 -0.03861934
-0.007853338 0.0020125837 -0.022690697 -0.00931443 0.015450462 -0.0402864 -0.020641739 -0.024552979
0.025815088 0.0059881373 -0.013079939 -0.028764457 -0.016160302 -0.03423651 -0.022949079 0.010050871
0.0042810426 -0.02847778 0.008141582 -0.02907856 0.024998637 -0.005529724 7.249228e-05 0.025760654
0.01627314 -0.027652105 -0.015291279 -0.014535933 0.015363398 -0.008108317 -0.013895116 -0.014873371
-0.027636282 -0.013766285 0.020010829 -0.009486589 -0.01623641 0.010368479 0.013547978 0.013613443
-0.019811358 0.003817428 0.0032420265 -0.02564827 -0.009318071 0.022752782 -0.026897538 -0.011281032
-0.0310228 -0.017321516 -0.024163824 -0.04093912 0.011552497 -0.03301791 -0.0018208268 -0.018998982
0.0050576376 -0.024225842 0.015636025 -0.00034287156 0.024038548 -0.013779933 0.017310832 0.0105316965
-0.008437461 -0.0060915514 -0.0048278295 0.00072874385 -0.020201724 -0.041552994 0.010731846 -0.017878426
-0.025261926 0.008878407 0.0029485654 -0.018892458 0.024911271 -0.012487591 -0.0073942645 0.015222188
3.433518e-05 -0.0018272119 0.0069271834 -0.011737597 -0.0088149905 -0.02914825 -0.035677228 0.024751902
0.013753454 -0.010251993 0.0076328903 0.011837497 0.02476152 0.013962091 0.013524679 0.016507296
-0.014454326 -0.03232437 0.011236857 0.0060308967 -0.016661294 0.014811229 0.0096121915 0.006199064
-0.007959854 0.0009128506 0.016779447 -0.012068709 -0.02758969 0.006814254 -0.0072380714 -0.020977369
-0.0053392304 -0.03207403 -0.019774482 0.012984577 0.0060887993 -0.004056937 -0.022710245 -0.02898947
0.015676927 0.0014212924 0.015659796 -0.010820894 -0.024048613 -0.014503125 -0.009524358 0.013751109
-0.038816676 0.0024466177 -0.011925027 0.013574729 -0.0078919185 -0.011786309 -0.010247886 -0.0070108343
0.00596822 -0.006698889 0.026100822 -0.032255482 0.025248505 0.024644941 0.013336092 -0.015087396
-0.022385664 -0.034532428 0.014872258 0.006467696 0.008411004 0.007003744 0.001898161 -0.012877154
0.015382033 0.004203177 0.006458392 0.0073212935 0.0022767761 -0.0123997005 -0.039980248 0.006478174
-0.00039772427 0.013520202 0.01264378 -0.036579024 -0.005230593 0.006773803 -0.033936758 -0.00485185
-0.021548714 -0.027211064 0.023762232 -0.028519768 -0.02680692 0.002120812 0.028924568 0.007885661
-6.472763e-05 2.197142e-05 0.0070859785 -0.014488381 0.00403861 -0.030497527 0.021548515 -0.02772587
-0.005067041 -0.0021995783 -0.014874344 -0.013976092 0.007492059 -0.01951785 -0.02120086 -0.0257514
0.00031257805 0.00817644 0.0020291775 -0.028474126 -0.02909757 0.018831946 0.013075094 -0.024746466
-0.027299207 0.024004756 -0.009406418 0.0061214436 0.0060324734 -0.0010480771 0.025288837 -8.23371e-05
0.01901412 0.0071789674 0.0067615057 -0.031759605 -0.0031035887 0.025901547 0.008357944 -0.006046439
00000000: 248a 30bb b171 893c 2152 f9bc 238b 8fbc
00000010: fe50 f2bc f278 15bc 271b e6bb 4be1 33bb
00000020: 0211 503c e851 51bc d43e 8e3c b171 e63c
00000030: 7814 debc 3dfe 9b3b 5bd5 8c3c 8866 35bc
00000040: 6694 013c 725e 673b 130b 02bd bac3 cd3c
00000050: 464e 14bd 1a04 253c 41a2 f5bb a801 97bc
00000060: d29f e3bc d723 febc ec00 773c 45e7 853b
00000070: 07dc 58ba ab08 0b3c 44a7 743c affc 0bbd
00000080: 7054 a2bc 8f55 8dbc f2f0 233c e576 e6bc
00000090: 6b15 4e3c 2cd2 7b3c 1dd0 273c 502f 1ebd
000000a0: 49ab 00bc 8de5 033b d7e1 b9bc 8d9b 18bc
000000b0: ef23 7d3c 5a03 25bd dd18 a9bc 5423 c9bc
000000c0: 2a7a d33c 2338 c43b 3e4d 56bc 70a3 ebbc
000000d0: 9c62 84bc 953b 0cbd b5ff bbbc 69ac 243c
000000e0: fd47 8c3b 3c4a e9bc 4564 053c 2936 eebc
000000f0: f1c9 cc3c b032 b5bb ff06 9838 0208 d33c
00000100: 404f 853c ab86 e2bc 4688 7abc 1f28 6ebc
00000110: c3b6 7b3c bfd8 04bc 57a8 63bc 71af 73bc
00000120: 7c65 e2bc fc8b 61bc c0ed a33c a36d 1bbc
00000130: 3802 85bc 8ee0 293c 57f8 5d3c eb0a 5f3c
00000140: 6e4b a2bc d02d 7a3b 2e78 543b 521c d2bc
00000150: d3aa 18bc 0b64 ba3c 3a58 dcbc 14d4 38bc
00000160: 8723 febc dae5 8dbc 36f3 c5bc c7af 27bd
00000170: af46 3d3c ca3d 07bd cfa8 eeba c1a3 9bbc
00000180: 8aba a53b 4675 c6bc 1f17 803c 71c3 b3b9
00000190: 7dec c43c 3ac5 61bc 72cf 8d3c 238d 2c3c
000001a0: 473d 0abc a39b c7bb c532 9ebb 2c09 3f3a
000001b0: 167e a5bc 7933 2abd a0d4 2f3c c775 92bc
000001c0: 19f2 cebc bd76 113c b83c 413b 5bc4 9abc
000001d0: b912 cc3c c198 4cbc 964b f2bb 7c66 793c
000001e0: 1e03 1038 0f7f efba 6dfd e23b 0d4f 40bc
000001f0: c06c 10bc 50c8 eebc 4922 12bd 80c4 ca3c
00000200: 2b56 613c faf7 27bc 531d fa3b 10f2 413c
00000210: acd8 ca3c 41c1 643c 9d96 5d3c 4f3a 873c
00000220: d6d1 6cbc 8f66 04bd cb1a 383c d49e c53b
00000230: 447d 88bc ccaa 723c 747c 1d3c 8521 cb3b
00000240: 0c6a 02bc 5e4c 6f3a 0d75 893c d6bb 45bc
00000250: c603 e2bc 1b4a df3b 582d edbb bbd8 abbc
00000260: b6f4 aebb 0f60 03bd 18fe a1bc 43bd 543c
00000270: 8d84 c73b 0ef0 84bb d60a babc 537b edbc
00000280: e66c 803c a94a ba3a f948 803c 1e4a 31bc
00000290: 9901 c5bc 849e 6dbc 0e0c 1cbc 554c 613c
000002a0: 3cfe 1ebd 6f57 203b 3061 43bc 8a68 5e3c
000002b0: 1b4d 01bc 5d1b 41bc c0e6 27bc 24bb e5bb
000002c0: 0f91 c33b 5b82 dbbb 64d1 d53c 531e 04bd
000002d0: f4d5 ce3c 30e4 c93c a07f 5a3c 2031 77bc
000002e0: 2462 b7bc e071 0dbd c5aa 733c f7ee d33b
000002f0: 4fce 093c aa7f e53b b7cb f83a b3fa 52bc
00000300: ec04 7c3c ceba 893b eba0 d33b 76e7 ef3b
00000310: f735 153b 1d28 4bbc 54c2 23bd dd46 d43b
00000320: a685 d0b9 d683 5d3c db27 4f3c e3d3 15bd
00000330: 6565 abbb c7f6 dd3b 4501 0bbd 45fc 9ebb
00000340: ee86 b0bc bde9 debc 03a9 c23c 4aa2 e9bc
00000350: 309a dbbc 52fd 0a3b 37f3 ec3c dc32 013c
00000360: 62be 87b8 444f b837 7f31 e83b ad60 6dbc
00000370: 5156 843b f3d5 f9bc 8386 b03c 5d21 e3bc
00000380: 6c09 a6bb cd26 10bb 85b3 73bc fbfb 64bc
00000390: f27f f53b e6e3 9fbc 6dad adbc 9af4 d2bc
000003a0: 84e1 a339 7af6 053c f3fb 043b 9242 e9bc
000003b0: 075e eebc 7445 9a3c eb38 563c 1ab9 cabc
000003c0: 96a2 dfbc 9fa5 c43c 601d 1abc 6496 c83b
000003d0: 0eac c53b a25f 89ba 892a cf3c 65ac acb8
000003e0: 80c3 9b3c 8b3d eb3b 9f8f dd3b 5c16 02bd
000003f0: 9465 4bbb 7b2f d43c c2ef 083c 3521 c6bb

fc.bias f4 [128]
-0.01989932 0.012568062 0.002416848 0.04020135 -0.04582439 0.22574416 -0.03391381 0.009395253
0.0007300079 -0.029610716 -0.048292704 -0.05249858 0.20992224 -0.020135108 -0.006321937 0.008365032
0.21935786 -0.024918504 -0.039913572 -0.01619395 -0.0036457786 0.1387838 0.08313264 -0.00976157
-0.027188886 0.02306641 -0.0030396718 0.03828915 0.00833908 0.058122087 -0.020435903 0.0061032157
-0.036766857 -0.021306828 0.013837743 -0.0022649134 0.000385112 -0.019365324 0.04726502 -0.0092045665
0.23036897 0.20326012 0.01037669 -0.03192473 0.011286907 -0.021008346 0.0668454 0.022049338
-0.022594003 -0.020561663 0.0012946737 0.034673095 0.00043022653 -0.04483632 0.2829286 0.13403405
-0.037527874 -0.02920902 0.11707126 -0.0066727763 0.08930591 -0.035028104 -0.05439748 -0.021514647
0.009843731 0.017457528 -0.083543114 -0.019948969 -0.027082458 0.12093549 -0.0063724797 -0.104408905
-0.0071684993 -0.01850728 0.012685628 -0.034361057 0.0066179624 0.015262717 -0.00168007 0.13596213
-0.039304543 -0.05263734 0.1864694 0.18637626 -0.02519875 -0.031992484 -0.021461649 0.0064466675
0.011361279 0.118850715 0.0022755386 -0.028465431 0.14862964 0.25671032 0.2225215 0.01052913
0.00086168 -0.019962724 0.021957802 0.014910738 0.0011061885 -0.031049067 -0.048235103 0.14089173
-0.022072459 0.0030477268 -0.022778468 0.011749359 -0.01706121 -0.02865892 -0.025773989 0.13728243
0.019813692 -0.01944336 0.14358155 -0.03271098 -0.08060173 0.20288497 0.06612124 -0.0029191193
-0.0043114256 -0.036286056 0.003130228 -0.028597515 0.028459603 -0.05572588 -0.05641559 0.13001117
00000000: e603 a3bc 46ea 4d3c fb63 1e3b 2caa 243d
00000010: 5bb2 3bbd 7a29 673e 35e9 0abd 8cee 193c
00000020: 005e 3f3a 2c92 f2bc 92ce 45bd c008 57bd
00000030: dbf5 563e 62f2 a4bc 4028 cfbb 7d0d 093c
00000040: 599f 603e e421 ccbc 6a7c 23bd 2da9 84bc
00000050: 04ee 6ebb 571d 0e3e 7241 aa3d feee 1fbc
00000060: 3abb debc c5f5 bc3c 3b35 47bb 15d5 1c3d
00000070: a3a0 083c 6d11 6e3d 3269 a7bc 7cfd c73b
00000080: d898 16bd a88b aebc b3b7 623c f16e 14bb
00000090: dce8 c939 07a4 9ebc f798 413d c0ce 16bc
000000a0: d8e5 6b3e 6c23 503e fe02 2a3c 81c3 02bd
000000b0: b8ec 383c b219 acbc 3ee6 883d d0a0 b43c
000000c0: 0f17 b9bc ef70 a8bc 0ab2 a93a 6005 0e3d
000000d0: 0790 e139 4aa6 37bd 04dc 903e 3940 093e
000000e0: d4b6 19bd c147 efbc 0fc3 ef3d 4ea7 dabb
000000f0: 04e6 b63d a179 0fbd e4cf 5ebd 7c3f b0bc
00000100: 9a47 213c 1703 8f3c a718 abbd 056c a3bc
00000110: 08dc ddbc 07ad f73d 3cd0 d0bb 56d4 d5bd
00000120: bbe5 eabb 949c 97bc 61d7 4f3c 2ebe 0cbd
00000130: 7edb d83b 7a10 7a3c cb35 dcba a839 0b3e
00000140: cdfd 20bd 409a 57bd d6f1 3e3e 6bd9 3e3e
00000150: 9c6d cebc 8d0a 03bd 57d0 afbc 913e d33b
00000160: a824 3a3c 0168 f33d 3421 153b 5630 e9bc
00000170: 5e32 183e 896f 833e addc 633e 5f82 2c3c
00000180: 5ee2 613a de88 a3bc d9e0 b33c 2b4c 743c
00000190: 87fd 903a 9d5a febc 2c92 45bd ec45 103e
000001a0: 4dd1 b4bc 5fbc 473b e999 babc 6280 403c
000001b0: f3c3 8bbc 1dc6 eabc f923 d3bc c493 0c3e
000001c0: 5350 a23c ae47 9fbc 0b07 133e f3fb 05bd
000001d0: 8512 a5bd 14c1 4f3e 936a 873d b24e 3fbb
000001e0: dc46 8dbb b0a0 14bd 8324 4d3b 5645 eabc
000001f0: 1d24 e93c d240 64bd 0914 67bd a621 053e

policy_head.weight f4 [4, 128]
-0.010157326 -0.03221815 -0.03962023 -0.0071187355 0.08967914 -0.045304548 -0.06666635 0.063426316
0.0648663 -0.24453798 -0.06210088 -0.10042525 -0.061740827 0.05306185 0.047299 0.0575995
-0.014580856 0.014108249 -0.0048524314 -0.0017923918 -0.04882744 0.11357119 -0.07756551 -0.055106387
-0.061157487 -0.08709579 -0.08636986 -0.08948529 0.024703838 -0.24161562 -0.0025838818 0.05016182
-0.00016851819 0.05210424 0.041624025 -0.024101263 -0.08761636 0.031966593 0.019360133 0.01455516
-0.03219635 0.07367125 0.017362159 -0.0004983549 0.055354346 0.046426114 -0.09242545 -0.04439638
-0.018612484 0.04980195 -0.05715553 0.10820982 0.022350885 -0.07759905 -0.065982886 0.1364374
-0.031911302 -0.017865296 0.08589489 -0.074456766 0.10315416 -0.06935507 0.002981911 -0.067550234
-0.0041029113 0.004232552 0.090820484 -0.044026483 0.06087374 0.15434892 -0.034028444 -0.33239046
0.013972032 0.07426169 -0.040741555 -0.012708012 0.074896805 -0.052165296 -0.039069448 -0.03548245
0.028063191 -0.074446216 0.08059777 0.05013046 0.048246764 0.033895973 -0.020518191 -0.017422281
0.04354655 0.07741694 0.036617313 -0.008778643 -0.19609894 0.0078751445 -0.035408683 -0.027717965
0.023682253 -0.057639256 0.012087465 -0.31894583 -0.011371922 -0.11247852 0.10032559 -0.19159622
-0.00994314 -0.013457376 0.020132802 0.07875553 0.017305123 -0.024207495 0.033340774 -0.004408521
0.034188714 0.06267862 0.009631325 0.0626127 -0.18295282 -0.07673506 0.025456715 -0.034899797
0.08145771 0.06322208 -0.05061614 0.06915661 0.0017120105 0.10269487 0.014833 0.034702662
-0.009664111 -0.043771308 -0.009736167 0.010883897 0.07731556 0.058698807 -0.066422656 -0.081815824
0.016368866 -0.021337977 0.030786198 0.10213373 0.06668303 -0.056601997 0.039020907 0.014741146
-0.017811531 -0.017473087 -0.16953713 0.06061986 -0.08396496 0.013516861 0.082313515 0.06065699
-0.059758656 -0.07462616 0.033578143 0.037057843 -0.046996582 -0.07044114 0.041823283 0.07649848
-0.018309457 -0.06902592 -0.04194883 -0.031235196 0.032604292 0.051741682 -0.53285044 0.047009315
-0.10871872 -0.23415384 -0.08940126 -0.08442776 0.04164296 -0.06876205 0.0045037083 -0.26880166
0.052342616 -0.08155752 -0.24907006 0.06665346 0.0365446 -0.03493847 -0.036022794 0.01977287
-0.07246583 0.021371193 0.060198735 -0.022124436 0.04782042 -0.030906836 0.044725146 -0.046331953
-0.061177354 0.048944987 -0.090134926 -0.082053594 -0.04764176 -0.10542601 -0.040561944 0.083589986
-0.029054848 -0.09607552 -0.02655402 -0.06929759 -0.0010765477 -0.00848368 0.031217013 0.10306672
-0.05591408 -0.06608049 0.11432803 -0.037176527 0.016224112 0.015735665 -0.02669902 -0.01810203
0.03238342 -0.3445609 -0.014587552 -0.07718632 -0.057195716 -0.027158748 -0.0046047126 -0.07228301
-0.041129317 0.0032838604 0.038762376 0.061952565 0.025956841 0.07759513 -0.03421024 0.09485634
-0.0375047 -0.07600786 -0.063738585 0.0490922 -0.06431641 0.069598004 0.010128886 0.0840845
0.06255025 -0.03021084 0.07222196 0.0812222 0.027750408 -0.01306202 0.05306385 -0.07177153
0.04955202 0.06708036 -0.07871046 0.012883346 0.051249664 0.061460227 -0.1384126 0.012584026
00000000: ea6a 26bc 2ef7 03bd d348 22bd 4844 e9bb
00000010: b2a9 b73d 4391 39bd 5e88 88bd a8e5 813d
00000020: 9fd8 843d 2a68 7abe 7e5d 7ebd c1ab cdbd
00000030: f3e3 7cbd 6257 593d 99bc 413d 74ed 6b3d
00000040: 8be4 6ebc 4926 673c 2501 9fbb b0ee eaba
00000050: 48ff 47bd 0398 e83d abda 9ebd 3cb7 61bd
00000060: 4680 7abd 475f b2bd aee2 b0bd 1044 b7bd
00000070: b45f ca3c 166a 77be 5856 29bb 7b76 4d3d
00000080: 42b4 30b9 416b 553d f47d 2a3d 0370 c5bc
00000090: 3570 b3bd 67ef 023d 2499 9e3c c478 6e3c
000000a0: 52e0 03bd f4e0 963d 163b 8e3c 08a4 02ba
000000b0: 3dbb 623d 4f29 3e3d 8e49 bdbd fbd8 35bd
000000c0: 3579 98bc 21fd 4b3d eb1b 6abd 1c9d dd3d
000000d0: 3419 b73c 40ec 9ebd 0922 87bd 3fb6 0b3e
000000e0: 6db5 02bd 3e5a 92bc a9e9 af3d ca7c 98bd
000000f0: 7d42 d33d 080a 8ebd 2a6c 433b c757 8abd
00000100: b771 86bb 38b1 8a3b 1700 ba3d 1d55 34bd
00000110: be56 793d a50d 1e3e 6961 0bbd 152f aabe
00000120: f3ea 643c 8316 983d 9ee0 26bd 4435 50bc
00000130: 7f63 993d 47ab 55bd 4907 20bd 0c56 11bd
00000140: c7e4 e53c 4277 98bd 7210 a53d 9955 4d3d
00000150: 669e 453d 81d6 0a3d c415 a8bc 2cb9 8ebc
00000160: de5d 323d c68c 9e3d 09fc 153d 4cd4 0fbc
00000170: 29ce 48be c006 013c b208 11bd c910 e3bc
00000180: 4901 c23c 2417 6cbd 810a 463c de4c a3be
00000190: 4c51 3abc 235b e6bd 8177 cd3d cd31 44be
000001a0: 8de8 22bc 537c 5cbc 8ced a43c 944a a13d
000001b0: 79c3 8d3c cc4e c6bc 5690 083d 5b75 90bb
000001c0: 7709 0c3d a65d 803d b4cc 1d3c 163b 803d
000001d0: fc57 3bbe 4527 9dbd 9a8a d03c 17f3 0ebd
000001e0: 4dd3 a63d 947a 813d df52 4fbd fba1 8d3d
000001f0: 8a65 e03a b051 d23d 1c06 733c 6124 0e3d
00000200: 3856 1ebc 8b49 33bd 7284 1fbc 5f52 323c
00000210: 9f57 9e3d 296e 703d 9a08 88bd 0e8f a7bd
00000220: 0018 863c fbcc aebc 5633 fc3c 7d2b d13d
00000230: 1d91 883d 7fd7 67bd 63d4 1f3d d984 713c
00000240: 7de9 91bc b823 8fbc 249b 2dbe 884c 783d
00000250: d2f5 abbd d375 5d3c fd93 a83d 7773 783d
00000260: 7ec5 74bd 9ad5 98bd 3c89 093d f7c9 173d
00000270: 7d7f 40bd 7243 90bd e44e 2b3d 3cab 9c3d
00000280: b7fd 95bc 765d 8dbd 89d2 2bbd f4e0 ffbc
00000290: 148c 053d 16ef 533d e368 08bf d78c 403d
000002a0: eca7 debd 06c6 6fbe 0218 b7bd 76e8 acbd
000002b0: cf91 2a3d 1ed3 8cbd d893 933b 5fa0 89be
000002c0: 3665 563d a107 a7bd 390c 7fbe 9c81 883d
000002d0: caaf 153d a41b 0fbd a38c 13bd b7fa a13c
000002e0: f768 94bd a412 af3c f392 763d 4e3e b5bc
000002f0: 58df 433d 5530 fdbc b731 373d 93c6 3dbd
00000300: 1b95 7abd 8a7a 483d a998 b8bd b70b a8bd
00000310: 0224 43bd 98e9 d7bd 4824 26bd 3a31 ab3d
00000320: 6f04 eebc 3ec3 c4bd d187 d9bc e5eb 8dbd
00000330: f21a 8dba 22ff 0abc d2ba ff3c a514 d33d
00000340: 2a06 65bd 3555 87bd d024 ea3d 6a46 18bd
00000350: 6ee8 843c 15e8 803c e7b7 dabc b54a 94bc
00000360: 7aa4 043d 496a b0be a100 6fbc dd13 9ebd
00000370: 0e46 6abd 067c debc 21e3 96bb 1d09 94bd
00000380: 3777 28bd 0936 573b 4cc5 1e3d f9c1 7d3d
00000390: 71a3 d43c 32ea 9e3d 0920 0cbd 0a44 c23d
000003a0: 879e 19bd 02aa 9bbd 6089 82bd e714 493d
000003b0: 52b8 83bd 6689 8e3d a1f3 253c 7f34 ac3d
000003c0: 581a 803d b97c f7bc 1be9 933d d357 a63d
000003d0: d354 e33c 1502 56bc 7b59 593d f4fc 92bd
000003e0: 0ff7 4a3d 6e61 893d f332 a1bd ab14 533c
000003f0: 2beb 513d b8bd 7b3d 08bc 0dbe 3b2d 4e3c

policy_head.bias f4 [4]
-0.0076582455 -0.001471307 -0.08385756 0.04201898
00000000: 05f2 fabb dfd8 c0ba 83bd abbd 181c 2c3d

value_head.weight f4 [1, 128]
-0.029846901 0.010228156 -0.009501675 0.0029145433 -0.0015354704 0.062133502 -0.05434212 0.029330432
0.07187387 -0.0031495166 -0.0015244656 -0.009777672 0.084225 0.035636455 0.039178845 0.057653375
0.08461022 0.0071300017 0.00022555783 0.013838494 0.018980434 0.028326342 0.014265232 0.05769169
-0.025607953 0.033461425 0.08502424 0.003419446 0.06272824 0.018307028 -0.0024385096 0.0031033154
-0.082401186 -0.009453844 0.064715244 0.021410037 0.083920516 0.086170286 0.009323368 -0.059738066
0.13633376 0.08550097 0.024234768 0.013090563 0.06885031 0.00437448 0.009416755 0.0011728528
0.003604548 -0.021789199 0.0010724221 0.003647166 0.0055577764 -0.0031810966 0.15983266 0.0793683
-0.06927244 -0.036116473 0.030614931 -0.0018587102 0.017391134 -0.016457524 -0.0029568307 -0.04368635
0.032772075 0.052925993 -0.0038209255 0.028236583 -0.022273142 0.039080475 0.054360736 -0.0020421036
0.034882773 0.05255952 0.055018365 0.018039389 -0.0002847624 0.06041177 0.018645981 0.029485038
-0.041904505 -0.005783174 0.07534483 0.058695477 0.012714014 0.08387516 0.053472918 0.0087330025
-0.073180385 0.036751628 0.019710349 -0.033239767 0.03690298 0.16745347 0.08307698 0.06606465
0.029838733 -0.058993366 0.077072054 0.0066448133 0.052641783 0.0052831536 -0.0022519187 0.08241767
0.0059533194 -0.0033853014 -0.000530718 0.00026868982 0.044204466 0.011554281 0.09417749 0.060043175
-0.08187838 -0.029383386 0.037411463 0.025870522 -0.0035955133 0.06196012 0.0031936886 0.082088664
0.06829783 0.04238129 0.012818083 -0.027225047 -0.07780821 0.0072981757 -0.000100990546 0.021627143
00000000: 7d81 f4bc ff93 273c eaac 1bbc ec01 3f3b
00000010: d641 c9ba b37f 7e3d d895 5ebd 6046 f03c
00000020: 9c32 933d 1f68 4ebb 94d0 c7ba 8732 20bc
00000030: 287e ac3d 88f7 113d ff79 203d f225 6c3d
00000040: 1f48 ad3d caa2 e93b b883 6c39 daba 623c
00000050: db7c 9b3c a50c e83c b8b8 693c 1f4e 6c3d
00000060: c5c7 d1bc d90e 093d 3021 ae3d c918 603b
00000070: aa77 803d 9ff8 953c 67cf 1fbb fe60 4b3b
00000080: f4c1 a8bd 4ce4 1abc 6d89 843d 1a64 af3c
00000090: 85de ab3d 0c7a b03d 0ac1 183c e7af 74bd
000000a0: 149b 0b3e 221b af3d fe87 c63c cd79 563c
000000b0: 6401 8d3d cc57 8f3b bc48 1a3c 69ba 993a
000000c0: 483a 6c3b 437f b2bc 8490 8c3a 4b05 6f3b
000000d0: 021e b63b f279 50bb 2cab 233e d98b a23d
000000e0: b6de 8dbd deee 13bd 2acc fa3c f79f f3ba
000000f0: da77 8e3c eed1 86bc 63c7 41bb 75f0 32bd
00000100: 033c 063d edc8 583d 7e68 7abb 6850 e73c
00000110: 2a76 b6bc d912 203d 5da9 5e3d d0d4 05bb
00000120: 3de1 0e3d a748 573d f05a 613d 57c7 933c
00000130: 2a4c 95b9 5572 773d 75bf 983c 9b8a f13c
00000140: 0fa4 2bbd c880 bdbb 644e 9a3d ab6a 703d
00000150: 714e 503c bdc6 ab3d 6b06 5b3d de14 0f3c
00000160: 99df 95bd e088 163d 9977 a13c 6c26 08bd
00000170: 9427 173d ec78 2b3e 4424 aa3d e74c 873d
00000180: 5c70 f43c 07a3 71bd f4d7 9d3d bcbc d93b
00000190: e99e 573d 4e1e ad3b ed94 13bb 98ca a83d
000001a0: 1014 c33b efdb 5dbb e21f 0bba f0de 8c39
000001b0: be0f 353d 2b4e 3d3c 21e0 c03d d5ef 753d
000001c0: daaf a7bd 6db5 f0bc c33c 193d 6bee d33c
000001d0: b4a2 6bbb e5c9 7d3d 344d 513b 1a1e a83d
000001e0: bcdf 8b3d 0198 2d3d f002 523c 1007 dfbc
000001f0: e959 9fbd 8925 ef3b e3ca d3b8 682b b13c
