results/ddqn/ddqn_weights.pt (torch, 132113 bytes, 6 tensors)

conv.0.weight f4 [32, 4, 3, 3]
000000 9b c3 ed bd c6 71 1a be a8 84 a4 3d a0 24 2a 3e
       -0.116095744 -0.15082464 0.08033115 0.16615534
000010 65 7e a0 3d 67 1c 2a be 04 17 ed bc 1b 31 ee 3d
       0.07836608 -0.16612397 -0.028941639 0.1163046
000020 30 e5 3e 3d c4 cc 1d 3e 5c 16 33 3e 52 75 cc bd
       0.04660529 0.15410143 0.17488998 -0.099833146
000030 d0 c7 b5 bd 95 ba c8 3d 7d 0b 53 be 7b d2 23 3e
       -0.08876002 0.09801213 -0.20609851 0.1599826
000040 53 da a1 be ba 4b 98 be e3 df f6 bd 9f c4 df 3d
       -0.3161188 -0.29745275 -0.12054422 0.10926174
000050 0e dd 83 bd 8a 72 2b 3e 3b 7b 12 3e e2 30 06 be
       -0.06438647 0.16742912 0.14304821 -0.13104585
000060 72 94 2f 3e 89 f2 dd 3d 55 80 33 3e 98 34 c7 be
       0.17146471 0.108372755 0.17529424 -0.38907313
000070 8e 22 18 bc d9 68 3d be f6 44 60 be 00 da 49 be
       -0.009285582 -0.18497027 -0.21901307 -0.19712067
000080 4f d8 93 3c de 28 2f 3d c7 1a ae bd 7c 08 2b be
       0.01804748 0.042763583 -0.08501201 -0.16702455
000090 ba 89 54 bd 00 bc 82 bb 15 2b 39 3e d5 7f 9d 3b
       -0.05188916 -0.0039896965 0.1808284 0.0048064985
0000a0 ee cf c1 3d fa de 01 be 4d 74 e7 3d 3c 56 b2 bc
       0.094634876 -0.12682715 0.113014795 -0.021769635
0000b0 64 f5 ba bd f6 55 50 3d 1e 97 d7 3d 54 04 2f 3e
       -0.09128836 0.05086323 0.1052687 0.17091495
0000c0 75 be 0a 3d 79 bb 1c 3e 97 64 d5 bd e0 c8 cf 3c
       0.03387304 0.1530589 -0.104195766 0.02536434
0000d0 45 f9 72 bd bf e4 50 be 88 00 4c be 93 af 44 3e
       -0.059319753 -0.2039976 -0.19922078 0.19207601
0000e0 b0 96 f7 3d d7 ef 82 3d 21 5b 1d 3d df c0 0b be
       0.12089288 0.06393402 0.038416985 -0.13647793
0000f0 b7 a8 43 3d 83 4b 10 be dc c6 e0 3d 06 6f 9a be
       0.04776832 -0.14091305 0.109754294 -0.3016283
000100 50 0e 1c be 1c f2 53 bd 96 61 6a be d7 da 4b be
       -0.15239835 -0.051744565 -0.22888789 -0.199077
000110 3f 19 3a 3e e7 fe 6f bd b5 02 9b 3d 3c 44 6d 3e
       0.18173693 -0.058592703 0.07568876 0.2317056
000120 9d 84 6c 3c bf 8a be ba 84 4a 05 3d c4 0d 4b bd
       0.014435914 -0.0014537199 0.032541767 -0.049573675
000130 ac f7 d2 3d 30 65 ad bc a7 32 a4 3d be d3 1e be
       0.10301146 -0.021166414 0.08017474 -0.1551046
000140 c1 7d df 3c 85 5d ff bc 9a 93 92 be e2 1b b7 bd
       0.027281644 -0.031172523 -0.28628236 -0.08940865
000150 bf 79 59 3e c7 cb 47 3e 88 22 73 3e bf ab d1 bd
       0.21237849 0.19511329 0.23743641 -0.10237836
000160 9f 9a 36 3e 84 d3 2b 3e 86 26 48 3c 95 6e d7 3a
       0.17832421 0.16779906 0.012216216 0.0016436154
000170 9f a9 d7 3c e6 bd 4d bd 13 76 c9 3d fb 62 58 bd
       0.026325999 -0.05022993 0.09836974 -0.05282877
000180 6a 98 e8 3d 4a 33 25 be f9 af aa 3d 55 87 2a 3e
       0.11357196 -0.16132846 0.08334345 0.16653188
000190 dc 93 9d be 82 ab eb bd a3 02 d4 3d 60 8f 37 be
       -0.3077687 -0.11507322 0.103520654 -0.17925787
0001a0 c2 d3 04 3e 4a 62 41 be 79 49 e8 3d cf ba 94 be
       0.12971404 -0.1888515 0.11342139 -0.29048774
0001b0 b7 89 da 3d bc 41 ea 3c 15 d6 ba 3d ea 72 0a 3e
       0.10670798 0.028595798 0.09122864 0.13520399
0001c0 31 06 56 3d c9 e5 e6 bc 78 a3 1b 3d e4 a7 48 3c
       0.052252 -0.028185742 0.037997693 0.0122470595
0001d0 31 b9 cc bd a4 b4 c8 3d 2d 41 1b be a4 7c 0b 3e
       -0.0999626 0.098000795 -0.15161581 0.13621765
0001e0 0b 75 1b 3d 23 bb 50 bd 01 ad 2f 3e 19 59 4f 3e
       0.037953418 -0.050959717 0.1715584 0.20248832
0001f0 e4 55 24 bd 9e d6 88 3b da 8b a1 3d 8a 91 89 bb
       -0.040120974 0.004175975 0.07888003 -0.004198258
000200 9b c3 62 bd 7e ea 70 bd 95 77 95 bd 6f 2c 22 be
       -0.055362325 -0.05881738 -0.07298199 -0.15837263
000210 b5 8b 93 3d 3e 8c 06 3e 44 05 e9 bd 1a c5 07 bd
       0.072043814 0.13139436 -0.113779575 -0.033146955
000220 64 a5 d5 bd 50 8e e8 bd b0 25 3f 3c 42 24 5e 3d
       -0.104319364 -0.11355269 0.0116667 0.054233797
000230 ad 45 a7 bd 8a e4 d2 bb 0d ff 43 3e 62 0a 46 3d
       -0.081675865 -0.0064359354 0.19140263 0.048349746
000240 06 ea ab 3d b3 87 8f bd 9e 8d 06 3e 52 49 45 3d
       0.08394246 -0.070083044 0.1313996 0.048165627
000250 74 bf 21 bc e6 dd 2e 3e d9 f3 7f bc 2a 37 59 bd
       -0.009872306 0.17076835 -0.015622103 -0.053031124
000260 db 3e 95 3d 97 7c 3a be ec f2 19 3d ce 6b 29 3d
       0.07287379 -0.1821159 0.037585184 0.041362576
000270 2f 08 37 be 3d b5 fe 3c 64 8a 8a be fe 47 ec bd
       -0.17874216 0.03109228 -0.2705871 -0.11537169
000280 1e d1 07 3d c5 d5 d5 bd 00 80 47 3e 9c 05 22 3e
       0.033158414 -0.10441164 0.19482422 0.15822452
000290 4b aa 05 be 45 a9 18 3e e2 a0 05 bb 15 71 c8 3d
       -0.13053243 0.14908321 -0.0020390083 0.09787194
0002a0 3e 57 69 3c a1 2f e2 bd a0 81 4d 3d a5 82 bc bd
       0.014241992 -0.11044241 0.05017245 -0.09204606
0002b0 b2 9e 19 3e 9b 54 97 be 9c e2 2a bd bf 62 14 3d
       0.15001944 -0.29556736 -0.041720018 0.036226984
0002c0 04 35 99 3d f2 45 ef 3d af 24 16 3d 66 3f 17 3e
       0.07480815 0.11683263 0.036656078 0.14770278
0002d0 ea a7 b9 bc b6 bc 03 bd 14 50 08 be 59 bd 57 3d
       -0.022663075 -0.03216239 -0.13311797 0.05267081
0002e0 31 55 88 bd 1a fb fa bd 64 19 1c bd 36 40 04 3d
       -0.06656874 -0.12254925 -0.038110152 0.0322878
0002f0 3c 4c 40 3d c4 e4 e1 3c f8 45 81 3d 5d 42 6a 3e
       0.046947703 0.027574904 0.063121736 0.22876878
000300 4d 9a 47 3c f6 1a 81 3e 6b 2b a2 3d 9e 78 75 bd
       0.012182784 0.25215882 0.079184376 -0.059929483
000310 db 45 b9 3a 17 23 31 3e 2b b7 c7 bc 08 52 dc bd
       0.0014135198 0.17298542 -0.024379333 -0.10757834
000320 2a aa 25 be 06 30 6f 3c d0 52 77 3d 21 df 2d be
       -0.16178194 0.014598852 0.06038171 -0.16979648
000330 ef 2b 30 3d ad 25 90 3d ff 4c 56 3b 89 e8 55 3e
       0.04301065 0.07038436 0.0032699702 0.20889486
000340 28 36 36 3e c5 8b ed 3c 28 b6 39 be 22 7f d1 bb
       0.17794096 0.028997311 -0.18135893 -0.0063933292
000350 68 3c 73 3e 4a ac f0 3d 99 82 bd 3d e7 ac c5 3c
       0.23753512 0.117516115 0.09253425 0.024130298
000360 39 03 86 bd 1b 75 94 3d b1 84 36 3d e7 85 0c bd
       -0.065435834 0.072488986 0.044560138 -0.034307387
000370 30 58 28 3e 95 7d aa bc 87 20 92 bd 51 d6 5e bc
       0.16439891 -0.020811835 -0.0713511 -0.013600902
000380 d0 d8 f4 bd de 29 2c 3d d7 f2 4d be b3 fe ba bd
       -0.11955416 0.042032115 -0.20112167 -0.09130611
000390 26 57 b3 3c 80 ec a8 be 17 4f 3c be 09 81 51 bb
       0.021892142 -0.32992935 -0.18389545 -0.003196778
0003a0 63 86 19 3e 6e a2 8f 3d 2f c5 09 3e d8 ad 4d bd
       0.1499267 0.07013403 0.13454126 -0.05021462
0003b0 fe d0 08 bd cb 92 09 3e 03 e5 3f bc 81 0b db 3d
       -0.033402435 0.13434903 -0.0117123155 0.106955536
0003c0 8d 5b d7 3c 87 70 28 be 7d 30 3c be f3 f8 78 bd
       0.026288772 -0.16449176 -0.18377872 -0.06078429
0003d0 bc 3e ac bc 7b 5a 83 3e 73 41 52 be 98 1f e9 bd
       -0.021026008 0.2565497 -0.2053278 -0.11382979
0003e0 20 19 d4 bd 58 82 74 bd 95 11 6c 3e 86 67 94 3e
       -0.10356355 -0.059694618 0.23053582 0.28985232
0003f0 45 23 87 bd 02 5e 20 3d 1a aa 1b 3e c0 89 e1 3d
       -0.06598524 0.039152153 0.15201607 0.11012602

conv.0.bias f4 [32]
000000 09 c3 99 bd 75 07 e3 bd ef a3 61 bd 46 e6 a8 3d
       -0.07507903 -0.11085407 -0.05508798 0.08247046
000010 0a 3e 26 3e e1 8c 93 3d 14 ed de bd 9d 63 ce bc
       0.16234604 0.07204605 -0.10885063 -0.025193984
000020 97 a9 b1 bd 0c dd ca 3b 33 5e 2d 3d 40 64 14 3e
       -0.08674925 0.0061909016 0.042326164 0.14491367
000030 0e e9 b4 bd 3a d3 c1 3c f4 96 fa 3b 76 70 b8 bc
       -0.08833514 0.023660291 0.0076473895 -0.022514563
000040 e6 93 c8 3d 46 9c a5 3d 16 0e 4e 3b e7 8a e0 3c
       0.097938344 0.080864474 0.0031441501 0.027409984
000050 7e e9 2e 3d ac 1d 02 3e e8 9a 8f 3b 04 2a 37 3e
       0.042703144 0.12706631 0.00438248 0.17887121
000060 59 29 e8 bc 42 3c 3b bd 71 58 12 bd 50 de 86 bd
       -0.028340029 -0.045711763 -0.035728876 -0.065853715
000070 4e 32 08 3e 2a b8 c7 3d ad d6 91 bd d6 09 36 3d
       0.1330044 0.097519234 -0.07121024 0.044442974

conv.2.weight f4 [64, 32, 3, 3]
000000 d9 95 5b bd c2 e8 8c bc f8 83 7f 3c 49 59 9d bd
       -0.053609703 -0.017200831 0.015595429 -0.076830454
000010 13 43 1f 3d 08 43 35 3d 08 d9 51 bc e2 d4 8c bd
       0.038882326 0.04425338 -0.012808092 -0.06876542
000020 c3 48 0c bd 73 a4 c9 3c 2e 16 19 bd 7b 08 50 bd
       -0.03424908 0.024614548 -0.037374668 -0.050789338
000030 6f 90 09 bc ca 54 52 bd cd 2b 54 bd ad c0 b1 3c
       -0.008396252 -0.051350392 -0.051799584 0.02169832
000040 7f df 47 3b b5 46 4e 3b e0 38 89 3d 89 c0 90 bd
       0.0030498204 0.003147525 0.06700301 -0.07067973
000050 c5 a0 cc 3a 2b f2 93 3c 03 6e c0 bb 5b 54 f2 bc
       0.0015611878 0.01805981 -0.0058724894 -0.02958124
000060 f2 ea 51 3c c8 76 17 bd 7a 84 32 bd 47 c2 52 bd
       0.012812363 -0.036978513 -0.04358337 -0.05145481
000070 aa 1a 39 bb 61 a4 3c bc b9 2d 65 3c 96 b7 55 3d
       -0.0028244653 -0.0115138 0.013987952 0.052177034
000080 17 3f 99 3c bd 64 ac 3c 1e c9 72 3b eb e6 4c bc
       0.018706841 0.02104413 0.0037046145 -0.012506227
000090 83 71 57 3d bd 17 9a 3b 1f 55 f9 bc a6 b0 31 3d
       0.052598488 0.004702537 -0.030436097 0.043381356
0000a0 90 05 df bb ac ce 73 3d a4 cd 19 3d a0 90 05 3d
       -0.006806083 0.05952327 0.03754963 0.03260863
0000b0 6f 0b a5 3c 81 a5 8e bc c9 7c 0e 3c a8 28 a6 3d
       0.020147054 -0.017412903 0.008696743 0.08113223
0000c0 ce 68 08 be 7a 86 ca 3c e4 5d 95 b9 b1 0c d0 bd
       -0.1332123 0.024722327 -0.0002848945 -0.10158671
0000d0 ce f7 41 3d 58 a7 28 3d a7 d1 b3 bc 7b 6c 7c 3c
       0.047355466 0.041175216 -0.021950556 0.015406723
0000e0 b2 ce f1 bd b7 c6 fe bc b1 c9 c1 bc 97 ba 86 bc
       -0.11807002 -0.031100614 -0.023655744 -0.016446395
0000f0 38 03 ef bc 97 ec fa 3c f8 c4 bd bc 99 41 04 bd
       -0.02917634 0.030630393 -0.023165211 -0.03228912
000100 fd 9a d1 3b 4b 0e 82 3d 95 7f 3f 3d 94 0d ff 3c
       0.00639665 0.063503824 0.04675253 0.031134404
000110 e8 e6 81 3d 9a 8d 89 3d 37 1c a3 3d 61 a5 aa 3b
       0.0634287 0.067164615 0.07964366 0.005207703
000120 4f 1e 2d 3d 7c 08 ab 3d 1f 72 f7 b9 cf a6 16 bd
       0.042265233 0.08351228 -0.00047196538 -0.036780175
000130 64 f8 8c bc 67 ae 26 3c 9f b4 ef bc cb 6f 7c bd
       -0.017208286 0.010173417 -0.029260932 -0.06163005
000140 4e d7 58 3d 1d e7 54 3d 07 0b ab 3b 93 b0 96 3d
       0.052939706 0.05197822 0.0052198204 0.073578976
000150 a3 e6 39 bd 0e 38 04 3d cd 8e 85 3d e0 78 8b 3a
       -0.045385968 0.03228002 0.06521378 0.0010640882
000160 84 d6 85 3d 33 7c 9f 3d d3 cc fa bb 33 fc 3c 3d
       0.06535056 0.07787361 -0.0076538115 0.046138953
000170 10 99 39 3d 4f 6a 6b bc ec c7 8a 3d a7 c1 37 bd
       0.045311987 -0.014368608 0.06776413 -0.044862416
000180 b5 2f 15 bd e0 2b 76 bc 43 41 74 3c 31 2a 3e 3d
       -0.03642245 -0.015025109 0.014908138 0.046426956
000190 00 74 4a 3d 4e 9d fe bc 6f 26 6b bb 48 6a 35 bd
       0.049427032 -0.031080868 -0.0035881063 -0.04429081
0001a0 86 02 ad bc 74 b6 12 bd cf e1 f9 ba 7e bd ab 3c
       -0.021119367 -0.035818532 -0.0019064489 0.02096438
0001b0 21 1e b1 3d 34 04 02 bd 04 43 02 bd 9f 5c 30 3d
       0.08648325 -0.03174229 -0.031802192 0.04305708
0001c0 18 03 55 bc 19 c0 40 3d 6e ee c7 38 a1 37 ca 3a
       -0.013001226 0.0470582 9.5334704e-05 0.0015427956
0001d0 e3 29 7c 3c 75 ee 92 bc 41 a0 06 bd 90 df e5 3c
       0.015390846 -0.01793597 -0.032867674 0.028060704
0001e0 6f 92 e9 bd e6 a0 e6 bc 7e d9 2c 3d d2 8a c8 bc
       -0.11404883 -0.028152894 0.042199604 -0.024480257
0001f0 84 bf 4c bd ed 44 d1 bc d4 d7 e5 bb 4f e0 35 bd
       -0.04998733 -0.025545562 -0.007014254 -0.04440337
000200 fa d2 f1 bc 5b c3 59 3d 54 08 59 3b 84 3b be bd
       -0.029519547 0.05316482 0.0033116536 -0.092886955
000210 e0 d6 f0 3c 59 56 41 bc f5 97 a7 3d 80 c1 26 3c
       0.029399335 -0.011800372 0.081832804 0.01017797
000220 14 91 16 bd 6e 01 82 bd aa 77 19 bc 19 7c c0 3b
       -0.03675945 -0.06347929 -0.009366909 0.0058741686
000230 b6 bd d3 3a 72 62 ee bc 6a 0b 8a 3d 81 d4 65 bd
       0.0016154561 -0.029099677 0.06740458 -0.056110863
000240 0d ad 8d 3d 82 aa 79 3c d9 90 12 3d 4d b1 74 3d
       0.069177724 0.015238406 0.03578267 0.0597394
000250 6e 87 4a b8 b0 92 e1 bb fa 8e 53 3d bc 91 9a 3c
       -4.828668e-05 -0.0068839416 0.051650025 0.01886832
000260 47 ad 7e bc 5a 9b b0 3c 32 12 c1 bc c5 ec 7e 3d
       -0.015544242 0.021558452 -0.023568247 0.06223752
000270 bf d7 5d 3d 57 97 fc bc b4 a9 1f bd 9d 50 af bc
       0.05416083 -0.030833883 -0.0389802 -0.021400744
000280 20 fc bf 3c 75 e3 87 3d ac 22 2b bd 68 e3 4b 3c
       0.023435652 0.06635181 -0.041781113 0.012444355
000290 66 d1 65 3d bb 64 90 3d 7a b2 66 3d 63 04 f3 bc
       0.0561079 0.07050463 0.056322552 -0.029665178
0002a0 09 8a cf bc d6 dd 88 3d 86 4e 5c 3d f1 76 45 3d
       -0.025334375 0.06682937 0.053785823 0.048209134
0002b0 f8 ee 79 3d c2 d8 01 bd 1f 28 96 3d 0e ba 03 bd
       0.061018914 -0.031700857 0.07331871 -0.032159857
0002c0 3b fa 20 bd 50 98 05 bd 13 53 30 3c e4 d9 cc bc
       -0.03930114 -0.03261596 0.010761994 -0.025006242
0002d0 30 44 2e bd 17 84 18 3d 82 f4 1b 3a 9a 68 cc 3c
       -0.042545497 0.037235346 0.0005949215 0.024952222
0002e0 3b 55 e1 bc 5c 03 f1 bc 69 e7 20 bd 57 64 5b 3d
       -0.027506461 -0.029420547 -0.03928319 0.05356249
0002f0 a9 c2 7f 3d e2 54 21 bd 07 13 c6 bc 70 e4 2f 3d
       0.0624415 -0.03938759 -0.024178995 0.042942464
000300 d5 34 5d bb 5b 66 29 bd cd 9f 63 3d 5f 1c 5c bd
       -0.0033753414 -0.04135738 0.05557232 -0.053737994
000310 87 1a a2 bc f4 cb 13 3d b8 30 dd 3c e9 0f ff bc
       -0.01978804 0.036083177 0.02700077 -0.031135516
000320 60 31 67 3c 3c 3e 74 3c b8 1e 52 bd 46 a2 d2 bc
       0.014110893 0.014907416 -0.051298827 -0.025712144
000330 5d a0 1d 3c dc 50 db 3c 85 b4 c3 bd 06 ca 17 bd
       0.009620753 0.026771955 -0.09555916 -0.0370579
000340 8a 9c 0a 3c b2 8a 5d 3d dc 25 7a bd 20 a0 bd bc
       0.008460173 0.05408735 -0.06107126 -0.023147643
000350 b1 e6 d4 bd 71 2a 0d bd 83 6e ba 3c 46 bb 41 3d
       -0.103955634 -0.034464303 0.022757774 0.04729774
000360 2e c8 0d 3d 09 cd 3d bd db 97 65 3d 09 e3 b4 3c
       0.034614734 -0.046338115 0.056053024 0.022080915
000370 9e 73 fe 3c 58 57 97 bb f9 78 0a bd b9 e6 4b bd
       0.03106099 -0.0046185665 -0.033806775 -0.04978058
000380 0a 6e 8e 3d b9 96 82 bd 89 30 7d 3b d7 6e b8 3c
       0.06954582 -0.06376404 0.0038633666 0.02251379
000390 3d 8e ad bd 2f a9 93 bb 56 7e f3 b8 f3 d1 d9 3b
       -0.084743954 -0.0045062522 -0.00011610675 0.0066473424
0003a0 f1 c5 dd bd 73 e3 7f bd ef 63 da 3c a3 20 89 bc
       -0.1082877 -0.06247277 0.02665898 -0.016739195
0003b0 dc 06 41 3c f5 46 9a bb ef 1c 3f 3d 14 e2 3d 3d
       0.011781421 -0.004708166 0.046658453 0.046358183
0003c0 11 a2 6c bd 0c 2a e9 bc 6c 3b 98 3c 26 8b 84 bd
       -0.057771746 -0.028462432 0.018583022 -0.06471853
0003d0 d7 e7 7c bd ea fe 05 3c da f8 28 bd c3 78 01 be
       -0.061744537 0.008178452 -0.04125295 -0.12643723
0003e0 31 1a a4 bd 2a da af 3c 4e 36 90 bd 06 b9 15 3d
       -0.08012808 0.021466333 -0.07041608 0.036553405
0003f0 e4 5c 30 3d a0 39 da 3c f9 88 85 3d a3 26 01 3d
       0.043057337 0.026638806 0.06520266 0.031530987

conv.2.bias f4 [64]
000000 97 4a 3e bb fa 9c 7f 3d 9c c4 7a 3d 18 b3 7c 3b
       -0.0029036158 0.062405564 0.061222658 0.0038558897
000010 81 42 d0 3c 26 64 05 bd c6 3d 5d 3d 22 23 24 bc
       0.025422337 -0.032566212 0.05401399 -0.010018142
000020 f5 aa 0d bc 92 8d dc ba f9 f5 bc 3c 35 3a 69 3b
       -0.008646716 -0.0016826859 0.023066508 0.0035587673
000030 71 96 ac bc 50 ab 61 3d af 16 15 3d 81 fa 32 bd
       -0.02106783 0.055095017 0.036398586 -0.04369593
000040 4f 3f e7 3c 0e 6f c0 b8 c9 d4 09 3d a2 e8 ee bb
       0.02822843 -9.175959e-05 0.033650193 -0.0072909156
000050 a8 dc 3d 3d 9e 72 31 bc 6b 5c b0 ba 34 04 66 3c
       0.046353012 -0.0108305495 -0.0013455277 0.014039088
000060 e6 d4 7a 3d ff cd 86 3b ca f8 0d 3d f6 ef bc 3b
       0.061238192 0.004113912 0.034661092 0.0057659103
000070 5b 53 1e bd 90 de 7a 3c 63 fd 30 bb 33 d1 0e bc
       -0.038653713 0.015311852 -0.00270065 -0.008716869
000080 5d 21 34 bc b2 31 bb 3c 10 50 97 bc b7 82 00 bd
       -0.010994283 0.022850845 -0.018470794 -0.03137466
000090 57 64 97 3d 90 bf 35 3d 02 19 95 3b 89 8c ae 3c
       0.07392185 0.04437214 0.0045501003 0.021307247
0000a0 f9 cb 8a bb 7c 9f 14 bd 1e c4 30 bd 6d 90 08 bc
       -0.004235741 -0.03628491 -0.043155782 -0.008335215
0000b0 4a 51 4a 3d 04 d1 80 3c cc c1 02 ba fa 3f 50 bd
       0.04939393 0.015724666 -0.00049879844 -0.050842263
0000c0 19 85 1c 3d e7 a9 1b bd de 56 94 3d cb 4b 47 3d
       0.03821287 -0.03800383 0.07243131 0.048656266
0000d0 31 82 94 bd 5e 0f 76 3d fc 61 f1 bc fa ca a4 3c
       -0.072513945 0.06007325 -0.029465668 0.020116318
0000e0 c4 c2 81 3d 3f 63 07 3d c3 19 1c 3d eb 37 df bc
       0.06335977 0.033053633 0.038110506 -0.027248343
0000f0 37 21 68 3c 93 5f 8c 3d 0a 59 9b 3d 36 76 76 bc
       0.014168075 0.06854167 0.07585342 -0.015042832

q_head.weight f4 [4, 3136]
000000 f9 2f b4 3b a3 12 9f bc 44 9a 8a bc 7d 78 f4 3c
       0.005498883 -0.019418066 -0.016919263 0.02984261
000010 5e b4 11 bc 43 98 2f bd 04 d6 16 3d 9d a7 3a 3d
       -0.008893101 -0.042869817 0.036825195 0.045570005
000020 a6 ad 80 3c c4 1e e5 3c bd 05 07 3c 34 4c 2c 3d
       0.015707802 0.027968772 0.008241114 0.04206486
000030 07 38 03 3d b0 c0 7c 3b 27 a3 04 bc af 19 c0 3c
       0.032035854 0.0038567 -0.008095539 0.023449747
000040 9d 9e 5d 3c ac 18 6a 3c 66 b6 16 3d 17 1a f3 bb
       0.013526586 0.014288109 0.036795042 -0.0074188816
000050 ec 07 04 bd d7 3d a8 3c 7e 5c 5a 3c 3c 52 8c 3c
       -0.032234117 0.0205373 0.013327716 0.017129056
000060 4f 8f 6e 3b 99 d3 18 3c b5 78 09 3c 7d 63 90 bb
       0.0036401337 0.009327793 0.008390595 -0.004406391
000070 bf 30 68 3d 70 ac 05 3d 82 38 35 3d a9 a7 12 3d
       0.056687113 0.032635152 0.044243343 0.035804424
000080 2e 5a 23 3c b5 02 b2 3a 6e b2 cb bc 6a fe be 3c
       0.009970231 0.0013581129 -0.024865355 0.023314673
000090 46 e1 0f 3d 65 2f 78 3c 2f 77 ce b7 a2 08 e5 bc
       0.035126947 0.0151480185 -2.4612613e-05 -0.027958218
0000a0 16 bd 3a bc 6c b9 ae 3d 76 a2 11 3d 60 6b c3 bb
       -0.011397621 0.0853146 0.035555325 -0.005963728
0000b0 17 80 9b bc b2 89 93 bd ef 18 37 bc d7 f7 25 bc
       -0.018981976 -0.07203998 -0.011175378 -0.01012989
0000c0 1a 10 88 3d 01 f0 8e 3c 24 08 23 3d 56 31 30 3c
       0.06643696 0.017448427 0.039802685 0.01075395
0000d0 44 0b f3 3c 8e 4d 8f 3b 96 16 46 bb 5e 5b 02 bd
       0.029668458 0.004373259 -0.0030225865 -0.031825416
0000e0 b8 e5 00 3d 48 27 79 3c 0b 81 b5 3c 6d f2 d5 3c
       0.031469077 0.015207119 0.022156259 0.026116574
0000f0 d1 c7 90 3c 02 a8 03 bc 2b d3 b7 3c 4f cf 8d 3c
       0.017673405 -0.008035662 0.02243956 0.017310767
000100 dc 5f 18 3d 09 fe 39 3c 83 66 0e 3c ab f4 8d 3c
       0.037200794 0.011352071 0.008691433 0.01732858
000110 b3 66 c9 ba 59 f3 57 3d 59 88 66 3c f0 aa 8d 3c
       -0.001536569 0.05272231 0.014070594 0.017293423
000120 2d a1 e8 3c 81 d3 8a ba ef 62 99 3b 66 02 39 bc
       0.028397167 -0.0010591598 0.0046809833 -0.011292076
000130 34 a4 9b 3d 89 11 21 3c 48 ac 01 3d 5f c6 ae 3c
       0.07599679 0.009830841 0.03165844 0.021334825
000140 db 53 3e bb 72 d1 06 3b 62 41 5d bc 9b 24 b1 3c
       -0.002904168 0.0020571616 -0.013504358 0.0216239
000150 a7 87 b6 3c 4f 58 c6 3b b3 b9 36 3c 59 4a 92 3c
       0.022281481 0.0060530077 0.011152673 0.017857717
000160 eb 7f a3 3c 24 15 88 3c 89 86 e9 3c aa 6b 04 3d
       0.019958457 0.016611643 0.028506534 0.03232924
000170 15 88 cb 3b 8c ed 0c 3d 53 bb 7c 39 9b 47 4b bc
       0.0062112906 0.03440623 0.00024102376 -0.012407209
000180 0b cc 55 3b a7 65 6a 3c 94 7d 8e 3c e3 5f 08 3d
       0.003262284 0.014306462 0.017393865 0.03329457
000190 8b b4 26 3d 25 d1 3e 3d fb 2e af 3c 96 d5 34 3d
       0.040699523 0.046586175 0.021384707 0.044149004
0001a0 01 95 94 3c f4 81 fb 3c 8c 4e d9 3c 97 8c d0 bc
       0.018137457 0.030701615 0.026526712 -0.025457663
0001b0 f3 e9 ae bb 15 78 c0 ba de d1 25 bd 8f 36 ed bb
       -0.0053379475 -0.0014684225 -0.040483348 -0.00723917
0001c0 14 ce c0 bb 90 6c 68 bd b7 c2 0a bd 41 b9 25 bc
       -0.0058839414 -0.05674416 -0.0338771 -0.010114969
0001d0 d4 20 8a bc df aa 37 bd 30 59 51 3c fd 41 c1 bc
       -0.016861357 -0.04484069 0.012777612 -0.023591036
0001e0 4e 74 ff 3c 58 89 20 3c d1 7e e3 3b 2a 50 78 3c
       0.031183388 0.00979837 0.006942608 0.015155831
0001f0 12 39 01 bd 07 21 01 3d c1 b6 6b bc 42 06 85 3c
       -0.031548567 0.031525638 -0.014386834 0.016238336
000200 cf a5 96 3d 1c 0c 41 3d b4 df f9 3c ff 9c 12 3c
       0.07355844 0.04713069 0.030502178 0.008948564
000210 34 78 67 3c 7c 4a 9f 3c a5 a5 72 3d 65 6d 82 3d
       0.01412778 0.019444697 0.059240002 0.063685216
000220 97 5f 21 3d 23 19 e6 3c 50 c2 24 3c 2b 9c 18 3c
       0.039397802 0.028088158 0.010056093 0.009314577
000230 b1 e3 72 3c d4 2b 96 3d 03 68 c0 3c de cd 62 bb
       0.014824794 0.07332578 0.023487097 -0.003460757
000240 66 97 94 3b 51 12 20 3c e6 2d a8 3c 00 b0 b1 3b
       0.0045346497 0.009769992 0.020529699 0.005422592
000250 7b e5 55 bd ec b7 a3 bd cf 39 63 bd 00 04 e0 bb
       -0.052220803 -0.07994065 -0.055475052 -0.0068364143
000260 a3 6f b6 3c 0b ee 56 3d 10 a3 cf bc 95 4c 5e bc
       0.02227003 0.05247311 -0.025346309 -0.013568063
000270 04 e9 3b 3d e5 8d 88 3c 16 2e 23 bd 90 ce fb bd
       0.045876518 0.016669223 -0.039838873 -0.12295258
000280 e9 02 d7 bd 81 b7 a4 3c 24 a2 90 bd b4 c1 c5 bc
       -0.10498602 0.020107033 -0.07062176 -0.024140216
000290 02 ef 45 bd a3 f8 af 3c 9e 64 b4 bd 6c b2 b1 bc
       -0.04832364 0.021480864 -0.08808254 -0.021691523
0002a0 50 38 68 3d f0 e8 85 3c d3 05 90 bc 25 5c 2b bc
       0.05669433 0.016346425 -0.017580902 -0.010458981
0002b0 16 21 5c 3c 8e 6b 8f bd 7c 7b 5f bd 6c 7d 04 3d
       0.013435623 -0.07002936 -0.054561123 0.032346174
0002c0 b7 87 01 bd 08 a1 d2 bc 74 76 3c 3b 89 c7 a8 3c
       -0.03162357 -0.025711551 0.0028757127 0.020602958
0002d0 b5 a3 bc bc f0 76 93 bd 64 06 f5 3c 5c 45 48 bd
       -0.02302728 -0.0720042 0.029910274 -0.04889427
0002e0 99 be 3d bd 43 c8 8b bc 9e 4f c0 3c f2 65 31 3d
       -0.046324346 -0.017063266 0.023475464 0.043310113
0002f0 5a 52 42 be 74 d7 2f 3d b3 29 bd 3c 8f 32 6e 3c
       -0.18976727 0.04293008 0.023091173 0.014538421
000300 f0 40 24 3d 81 96 0c 3d 46 7b aa ba 9c 7a dd 3c
       0.04010099 0.03432322 -0.0013006709 0.027036004
000310 23 23 38 3c f7 26 a9 3b 6e 9a 21 3c 4f 98 d3 3c
       0.011238846 0.0051621157 0.009863479 0.025829462
000320 f5 6a 5e 3c 51 cf 1e 3d e3 0c 86 3c af fd 65 bc
       0.013575305 0.03877193 0.016363567 -0.014037534
000330 0c a1 ec 3c 47 8f 8f 3c dc 78 18 bd ea 3a 6e 3c
       0.028885387 0.017524375 -0.037224635 0.014540413
000340 d7 ab ac 3c b5 17 04 bb 35 02 2d 3c f3 29 10 3d
       0.021078033 -0.0020155732 0.010559608 0.035196256
000350 f4 55 4f bc d5 f3 08 bd 87 e5 76 3c 3f a8 34 3c
       -0.01265477 -0.03343566 0.015069372 0.011026441
000360 5a 26 28 3d 92 c0 b4 bc 92 e0 0b bd b6 d9 c7 bc
       0.0410522 -0.02206448 -0.034149714 -0.024395805
000370 b1 56 41 bd a4 84 88 39 46 ce 61 bc 31 71 31 3d
       -0.047201816 0.00026038766 -0.01378209 0.04332084
000380 0b e6 2b bc dc f3 24 bd f1 48 53 3c a1 c6 27 3c
       -0.010491858 -0.040271625 0.012895809 0.010240228
000390 76 34 f1 3c d1 6e 2b 3d ce bd 6a 3d 2b 3d ef bb
       0.02944396 0.04185373 0.057309918 -0.007300993
0003a0 35 f6 20 bc bb 1c 0e 3b 98 b8 22 bc 78 8c 88 3a
       -0.009824325 0.0021684605 -0.009931706 0.001041784
0003b0 f6 40 87 3c 7e 3f 2a 3d 28 07 08 3d ae a9 e2 3b
       0.016510468 0.041564457 0.03320995 0.0069172
0003c0 57 2f 24 3c ae 11 84 3b 61 25 4c 3c f1 67 51 3c
       0.010021052 0.004030428 0.012460084 0.012781129
0003d0 cb 52 9b 3b ac 1b 09 3d 60 75 a6 bc 75 3a 7d bd
       0.0047400943 0.033473656 -0.02031964 -0.061823327
0003e0 97 70 04 3b 75 6f 95 bb 1b 01 8f bd 98 b8 88 3d
       0.002020871 -0.004560406 -0.06982633 0.066758335
0003f0 19 32 b9 bc e4 5f 69 bd 29 b5 20 bc b5 a1 99 bd
       -0.022606896 -0.056976214 -0.009808817 -0.07501546

q_head.bias f4 [4]
000000 35 6c f1 3c d1 90 90 3c 9b ed 17 3d 0a 19 9a 3c
       0.029470542 0.017647179 0.037091833 0.018810768
