results/a2c/a2c_weights.pt (torch, 145221 bytes, 7 tensors)

conv.0.weight f4 [32, 4, 3, 3]
00000000: 94f6 c83d 2c92 2f3e 378a 86bd 6ed6 033d
00000010: 54a8 ef3c 32b9 7f3d ff3c c63d 5680 23bd
00000020: 40b1 f73d 8d98 22be 1a5c 23be 91a5 9bbe
00000030: 7cdc 1abe 8b88 d43b 7b49 78be 917b 523d
00000040: e0c0 09be 9594 12be 9b70 9c3b 3a57 363e
00000050: 6ecf 463d f1ac 0c3e 8126 12be 1b9a 893d
00000060: b744 193e 1122 b0bd 457c 99bd b81d 363e
00000070: 0e37 2b3e 05e4 313e f64a 933d 91e9 613e
00000080: 31d9 8f3e 983c e13d 805b 093d 2d56 493e
00000090: 0d98 403d ae8c 373d 861e 153e 447e 5cbd
000000a0: 9ce5 f4bd efdd e6bd f6f0 44bd 990b 09be
000000b0: 758f 35bd 27ef 93bd f091 30bc 77f3 30be
000000c0: 5fa1 c9be a46c 0ebe ce38 b2be 3828 303e
000000d0: 602a 343e a006 493e 360e 9cbd 7b01 b83d
000000e0: 9b43 cf3d cb96 e1bb b358 103b 21c0 e93a
000000f0: 5ea8 603d 4dc4 17be e2af 363e d399 323e
00000100: 5373 6bbe 5c62 253e 3bfe 9c3e 90c5 a53e
00000110: f6ac 0f3c 6e61 173e 924f 983e 7678 b6be
00000120: a445 ee3d d8d9 d83d ecc9 7e3d 1934 1b3d
00000130: 8db7 833d 11f0 2c3d e6ce b53c 3036 1e3e
00000140: 4540 81bd 9b43 45be 1149 ffbd 4a1e 9cbe
00000150: 2e10 98bd d885 a93e 04b9 3abe 6bb2 e63c
00000160: a04b 07bd b742 a2be faa9 483d 06ef 453e
00000170: f233 803e 79b1 a33d b654 403d 9293 353e
00000180: 39b1 0f3d bef5 113e e577 573c c5d5 45be
00000190: bed8 76bd 03bc 553e ac02 a1be c683 9fbe
000001a0: 7da2 e83d c629 093d e4c1 bebd 8262 5e3e
000001b0: b997 513d 8312 d8bb 773d 523d 0ac0 0f3d
000001c0: 18ac ab3d e5fe 0a3e f3cf 293e 1203 22be
000001d0: 5849 393d 6856 a6bc 06ed af3c 738a 2b3e
000001e0: 223f 54be b386 b5bd fdc3 75bd fae6 7f3e
000001f0: a6f6 76bc 9e9b 15be 5bc3 b3bc b730 1e3d
00000200: 3034 9e3d f096 363d 9b60 acbc 2cf5 113e
00000210: 43f2 a1bd c382 af3b 026e 1e3e d2d4 4dbe
00000220: 0250 113e 7378 96be 4dd6 473e 239f 803e
00000230: 17e4 4b3d 07de 4ebe 8c79 073e 80b8 31be
00000240: de1e 1a3e 5ed0 ea3d d22b c03d 83e8 dc3d
00000250: 8772 99bd 058c 103d 86bd 0b3e c202 bcbd
00000260: 116a 433d 2a49 2dbe b1ea 95bc 43ac 24be
00000270: d431 813b 833f 16be f8b0 c7bd 8475 2fbe
00000280: 6f75 e5bd 8c70 29be e5a7 5c3d 3fe3 743b
00000290: 0c30 b73d b63f 223e 422e 3cbd 1ad3 9a3d
000002a0: 279b d53d 448a 043e 8a39 8c3d 67ef 90bd
000002b0: 5fea 11bd b3f3 7f3d d8b1 603e f0a4 623e
000002c0: 3b27 7a3e 1c6a 5f3e 6160 1c3e faa0 983d
000002d0: acec 033e b2ca b73d 3fdf 45bc 437d b93d
000002e0: 5d56 a3bd 982c 013e 8391 9e3c a4f5 c93d
000002f0: d591 9fbd 09ed 5e3e 909c d03e 7b39 3f3e
00000300: 0610 95be 5477 753d 7fe4 a0be e38b 99bc
00000310: 96ed d93e bb0b b33d d9e2 253e 10db a43d
00000320: 5a26 303e d06d d7bd bb98 35bd 2b20 583d
00000330: 6d0a 0e3e 1cca cdbd 75ea cd3d 9860 d23d
00000340: 6e5c acbe 96e5 bdbc da55 f23e d32d 4b3e
00000350: 036f 813e b5b4 233e c7bb 59be af95 753e
00000360: 6214 42bd e027 95bc f733 69bd 8507 cd3b
00000370: 3d7d 03bd 20fd debd 72fe e33d 6a40 653d
00000380: a1b3 30bd 3271 133e 7dd3 6bbc 4c99 573e
00000390: e51f e6bd afbe 11be d31b c53c 647c e93d
000003a0: e181 8f3c bf96 963e 30aa 7dbe ea0d 80bd
000003b0: c3f9 99be 2918 b5bc d999 283e 42a2 dcbd
000003c0: c3c6 a8be f04c 35be a462 98be a1f7 18be
000003d0: 1f84 b1be 385f 463d 78c7 e83e fd88 393e
000003e0: 407f dd3e 8171 0bbe ce95 98be f6e3 2c3d
000003f0: dd60 933d 9954 0a3e 2039 903d b74a 4ebc
0.09812656 0.17145604 -0.06569331 0.032186918 0.02925507 0.062432475 0.09679603 -0.039917313
0.12094355 -0.15878506 -0.15953103 -0.30399755 -0.1512317 0.0064860038 -0.2424678 0.051387373
-0.13452482 -0.14314492 0.004774166 0.17806712 0.048537664 0.13737847 -0.142725 0.067188464
0.14967619 -0.08600248 -0.07494406 0.17784774 0.1672022 0.17372139 0.07192032 0.22061755
0.2809539 0.109978855 0.033534527 0.1966178 0.047020007 0.044811897 0.14562425 -0.053831354
-0.11957857 -0.11272799 -0.04808136 -0.1338333 -0.044326264 -0.07223349 -0.010776982 -0.17280374
-0.3938093 -0.1390863 -0.34808964 0.17202842 0.1759429 0.19631433 -0.07619898 0.089846574
0.101203166 -0.006884431 0.0022025525 0.0017833748 0.054848067 -0.14820977 0.17840531 0.17441492
-0.22993211 0.16150802 0.30662712 0.3237729 0.008769264 0.1478326 0.29748207 -0.3563878
0.11634377 0.105884254 0.062204286 0.03789148 0.06431494 0.042221133 0.022193383 0.15450358
-0.063110866 -0.1926407 -0.12465108 -0.3049186 -0.07424961 0.33109927 -0.1823464 0.028161248
-0.033031106 -0.31691524 0.048990227 0.19329461 0.2503963 0.079928346 0.046955787 0.17732075
0.035081122 0.142539 0.013151144 -0.19319828 -0.060265295 0.20872502 -0.3144735 -0.31155223
0.11359117 0.033487104 -0.093143255 0.21717265 0.051170085 -0.0065940036 0.05132815 0.035095252
0.08382434 0.13573797 0.16583233 -0.15821484 0.04523596 -0.020304874 0.021475326 0.16752033
-0.20727208 -0.088635825 -0.060001362 0.24990454 -0.015073454 -0.14610144 -0.021943739 0.038620677
0.07724798 0.04457754 -0.021042159 0.14253682 -0.07907536 0.005356164 0.15471652 -0.20100716
0.14190677 -0.2938877 0.19515343 0.25121412 0.04977807 -0.20201884 0.1322996 -0.17355537
0.15050837 0.11465524 0.09383358 0.107865356 -0.074925475 0.035289783 0.13646516 -0.091802135
0.047708575 -0.16922441 -0.018300386 -0.16081338 0.0039427076 -0.14672665 -0.09750551 -0.17134672
-0.11204039 -0.1654684 0.053871054 0.0037366895 0.08944711 0.15844616 -0.045942552 0.07559796
0.104299836 0.12943369 0.06846912 -0.070769124 -0.035623904 0.06248827 0.21942842 0.22133231
0.24429028 0.21817821 0.1527114 0.07452579 0.12883252 0.08974208 -0.012077152 0.09057095
-0.07975457 0.12614667 0.019356495 0.09861305 -0.07791487 0.21770109 0.40744448 0.18674271
-0.29113787 0.059928253 -0.3142433 -0.018743461 0.42564076 0.08742472 0.16199817 0.08049595
0.1720213 -0.10518992 -0.04433511 0.052765053 0.13871165 -0.10048315 0.10054485 0.1027233
-0.33664268 -0.023180764 0.47331125 0.198417 0.25280008 0.15986903 -0.21263038 0.23982881
-0.04738272 -0.01820749 -0.056934323 0.006257 -0.03210186 -0.108881235 0.11132516 0.055969633
-0.043140057 0.1439865 -0.014393684 0.21054572 -0.11236552 -0.14232896 0.02406112 0.11400679
0.017517986 0.29411885 -0.24771953 -0.06252654 -0.30073366 -0.022106247 0.16464938 -0.10773136
-0.32964143 -0.1770513 -0.29762757 -0.14938213 -0.34671113 0.04843065 0.45464683 0.18118663
0.43261147 -0.13617517 -0.29801792 0.042209588 0.071962096 0.13508834 0.07042146 -0.012591056

conv.0.bias f4 [32]
00000000: 25c8 2fbb dcfa c33d 0dc5 003e e956 043e
00000010: 9dd6 85bc c52b 54bc 541e f83c 10b8 e43d
00000020: 7857 4d3e d34f dbbd 6ca5 3a3d cdeb 0b3e
00000030: 8318 7f3d 7859 363e 4507 68bc ce6c 8a3d
00000040: cf8d 0c3e 8b65 f4bd 6360 8e3d 69ab 3fbd
00000050: 9d45 3b3e 931e d23d 351a f33a 5ff2 3d3c
00000060: 145a 89bd deba 223e bd2b 463d a846 333e
00000070: 9575 1e3d 48b4 68bd 768c dc3d aad7 86bc
-0.0026822176 0.09569332 0.12575169 0.12923779 -0.016337687 -0.012949889 0.0302879 0.1116792
0.20052898 -0.10708585 0.045567915 0.1366417 0.062279236 0.17807567 -0.014161889 0.06759034
0.1372597 -0.1193343 0.06951978 -0.04679433 0.18288274 0.10259738 0.0018547239 0.01159343
-0.06706634 0.15891597 0.048381556 0.17507422 0.038686354 -0.056812555 0.10768978 -0.016460259

conv.2.weight f4 [64, 32, 3, 3]
00000000: 0602 ab3c d18f 8bbc 364a dbbb 4f70 b23c
00000010: d18f 86bc b342 d4bc b662 1e3d 32fc cc3c
00000020: 8872 2c3b 8523 2fbc a692 49bd c575 d53c
00000030: f2ab f93c 1ba0 14bd 9758 c73d f926 7a3d
00000040: df4e 973d d7a4 17bc d9ed 85bd 89df 6fbd
00000050: d711 cb3c e61f dbbc be7e c8bc 036a ab3c
00000060: bfe2 bebc 9df6 f73c 978e dd3b 287c 4e3d
00000070: 9e7d 39bc 78fe adbc 132d c83c 1f4f 0bbd
00000080: 1ed0 ae3c 087c 723d f5c5 66bd b12a ecbc
00000090: 869b 903d 24b8 ebba 5ba0 3ebd 8c73 09bd
000000a0: 103e a33c d30f f83c 76c6 423d 4b57 e43c
000000b0: 31fe b9bd ceaa 8f3c 2616 c23d 4479 c03c
000000c0: e8bf 26bd d269 cf3d 607a 1cbd b080 7ebd
000000d0: 789c 963d e323 b2bd 2d20 f1bc 9ea5 9abd
000000e0: 6d9e 9abd 48bd c2bd 8aed fabd 8bb0 5ebd
000000f0: 41b0 5bbd 2e0e 80bd 7018 9bbd 7b87 24bb
00000100: 27d8 9fbd d366 6abc 670d ccbc 97af e2bc
00000110: 14a6 9abb a698 71bd 8457 a13c a92f b93c
00000120: 4616 0bbe 5d05 d8bc 118c c53d 7f8d bdbd
00000130: 2510 3abd 1ef0 693d 3939 84bd 6b64 17bd
00000140: 4e26 633b 991e 4cbd 5a60 5abd 9554 643d
00000150: f984 afbd e27b 573b 3966 64bd 08d1 2ebd
00000160: f755 dc3c c7b0 0e3c 9fed 5f3d ed03 e73b
00000170: c558 4b3c 4eb9 823d 66e5 8abc 7cdc 493d
00000180: f944 823d 99d7 8a3d 5f2f cc3c 893b f63d
00000190: eb82 52bd 379d b43a a0ec 103e fd15 55bd
000001a0: 24fb 833d 16b1 6d3d d994 a6bb 3fc0 943d
000001b0: ddf4 703e ad37 56bd a53b 1d3e 59ac 323e
000001c0: a447 abbd 6cbf 253e 2806 503e 213b 90bd
000001d0: 5d79 0b3e 143c d63c bb4a 3e3d f4ad 213d
000001e0: dfb7 42bb 4b41 f73c 7311 143d 5d5c cb3d
000001f0: 8bd5 bb3c b4fd b6bc 9386 24bd e412 e1bd
00000200: 3412 4a3d 0bf6 233d 052e 32bd effa 4e3c
00000210: 5793 9abd 8668 07be 1f50 183c baab 68bd
00000220: 2f37 a83b 230b e0bd 5e52 f4bd 212b 7abd
00000230: 2666 52bc 38e8 52bd 9c87 7f3d 6e38 8cbd
00000240: 0189 a9bc 488f 42bd a636 ee3c dee1 9f3c
00000250: b1e9 79bc 37b2 c43c 2238 15bc b409 af3c
00000260: 1597 49bd f15d 22be e600 f2bd 5605 d6bc
00000270: 8782 76bd 7b4e 1fbd a862 97bc 3e1c 5dbd
00000280: 4974 2fbb 4800 47bd ad9a ba3d 4c4b 9cbd
00000290: 57af 90bd bb99 e53c 186c 123b c1d6 023d
000002a0: c1cf 703d b529 86bd 9e28 523d 3b8e 703c
000002b0: 9b63 033d e55f 28be 0693 b1bc b789 dfbb
000002c0: 6ab6 44be 831e d13c d5d9 b53d 008b a3bd
000002d0: 5d33 633d 314a 863c c793 4d3c 703f ddbc
000002e0: 3f9f febc a0af 07bd 5fa4 c2bb d610 32bc
000002f0: c93d b2bc 0233 a53c fe75 c9bc 79aa 6e3d
00000300: b24c 5a3d d1d3 213c acf4 e4bc 5d7c ac3a
00000310: c553 ec3c 14d5 923d 9a10 f43c e74a c13d
00000320: 3755 32be 1fc8 fa3d f6d4 e13d 7761 efbc
00000330: 3aa9 3d3d 81ca 3a3d 3716 3a3c ef6b 183d
00000340: 8b99 a2bc 100b bebc c6eb 833c c601 be3d
00000350: 1477 babc 4ba0 cebc f0ab 9b3d 9104 5b3c
00000360: aa67 7dbc 1966 41bd 29fe 1f3d 2f1a 56bd
00000370: a640 8f3c 643f ab3d a7b3 07bd 7dcf b6bd
00000380: 0ac4 4f3d 09ce 143e 049b aebc 3896 34bd
00000390: 38ee 053e 6d1b 023b f8ea b4bb d4c3 d93d
000003a0: c606 403d f168 54bd c000 93bc febc a6ba
000003b0: 55dc 293d 5fc9 64bd 98c7 563d d084 603d
000003c0: 3f52 17bd f3e1 243d b1fa 1a3d 4c5f fc3c
000003d0: 2698 ca3d 7d97 993c 2472 cabc 0aec c83c
000003e0: a5f3 debc 5762 96bb 29db b83c def1 b9bd
000003f0: 3b47 d9bd d0d9 b9bc 6611 203b 47cb e5bd
0.020874988 -0.01703635 -0.0066921962 0.021782069 -0.016425999 -0.02591071 0.038668357 0.0250226
0.0026313383 -0.010689621 -0.04921212 0.026057133 0.030477498 -0.0362855 0.09733694 0.061072323
0.0738809 -0.0092556095 -0.065395065 -0.05856279 0.02478878 -0.026748609 -0.024474498 0.020924574
-0.02330148 0.030268962 0.006761383 0.050411373 -0.011321453 -0.021239504 0.024435556 -0.034011003
0.021339472 0.059200317 -0.05634113 -0.02882895 0.07060914 -0.0017983955 -0.046539646 -0.03355746
0.019927055 0.030280983 0.04755255 0.027873656 -0.09081686 0.0175375 0.09476881 0.023495324
-0.04071036 0.101276055 -0.038202643 -0.062134445 0.07354063 -0.08698251 -0.029434288 -0.0755112
-0.075497486 -0.09508759 -0.12252338 -0.054367583 -0.053634886 -0.062527046 -0.075730205 -0.0025105167
-0.078049 -0.014306742 -0.024908734 -0.027671618 -0.004719505 -0.058983468 0.019695051 0.022605734
-0.13582715 -0.026369745 0.09645856 -0.09255504 -0.045425553 0.05711376 -0.06456227 -0.036961
0.0034660283 -0.049833868 -0.053314544 0.055744726 -0.085702844 0.0032880236 -0.05576155 -0.042679816
0.02689646 0.008709139 0.054669973 0.0070500285 0.012411301 0.06383 -0.016955089 0.049282536
0.06360812 0.06779403 0.024924932 0.12023074 -0.051394384 0.0013779764 0.14152765 -0.052022923
0.06444386 0.05803021 -0.005083662 0.072632305 0.23530908 -0.05229919 0.15354784 0.17448558
-0.08363274 0.16186303 0.20314848 -0.07042528 0.13620515 0.026151694 0.046457987 0.039472535
-0.0029711646 0.030182501 0.036149453 0.09929726 0.022928974 -0.022337772 -0.040167402 -0.10989931
0.049333766 0.040029567 -0.04350092 0.012633069 -0.07547634 -0.13223466 0.009296446 -0.056804396
0.0051335315 -0.10939624 -0.11929773 -0.061076287 -0.012841737 -0.051490992 0.062385187 -0.068467006
-0.020695211 -0.047499925 0.029078793 0.019516882 -0.01525347 0.02401076 -0.009107621 0.021366931
-0.04921635 -0.15856148 -0.118165776 -0.026125591 -0.060183074 -0.038893204 -0.01847966 -0.053982012
-0.0026772192 -0.048584253 0.09111533 -0.07631549 -0.070646934 0.028027406 0.002234226 0.031943087
0.05879188 -0.06550924 0.051308267 0.014682348 0.032077413 -0.16442831 -0.021676552 -0.006821837
-0.1921021 0.025527244 0.08879439 -0.079854965 0.055468906 0.0163928 0.01254744 -0.027007788
-0.031081794 -0.033126473 -0.0059400047 -0.010868272 -0.021757977 0.020165924 -0.024592396 0.058268044
0.0532958 0.009877161 -0.0279487 0.0013159622 0.028848538 0.07169548 0.029793072 0.094381146
-0.1741532 0.12245201 0.11026947 -0.02922128 0.046303965 0.04560328 0.0113578355 0.03721231
-0.019848606 -0.023198634 0.016103636 0.09277682 -0.022761859 -0.025222918 0.07601154 0.013367788
-0.01546661 -0.04721651 0.039060745 -0.052271064 0.017486881 0.083617 -0.033130314 -0.08926294
0.050724067 0.14531721 -0.021314152 -0.044088572 0.13079154 0.0019852773 -0.0055211745 0.106330544
0.04688146 -0.051857892 -0.017944694 -0.0012721119 0.04146989 -0.055856105 0.05243644 0.05481416
-0.03694367 0.040254544 0.037836734 0.03080716 0.09892301 0.018748993 -0.02471263 0.024526615
-0.027215788 -0.0045893597 0.022565441 -0.09079336 -0.10609289 -0.022686869 0.0024424433 -0.11220413

conv.2.bias f4 [64]
00000000: 65af 8abb 357e bebc 958d 483d 8f2a 4dbd
00000010: e2fc 5abb 3041 84bd 4c18 f93c 6faf 25bc
00000020: 5cda 913b d32d a73b 848a d7bc 87bd b73c
00000030: f634 08bc 3ab9 5d3d 832d 16bc e083 9ebc
00000040: 3ac6 0e3d d8c4 52bd bb72 eab9 5d70 893b
00000050: 0f90 d13d 81e8 96bc 3660 593d 5f15 6fbc
00000060: 148b 883c a239 0cbc 4025 8cbd 6fb3 02bc
00000070: 5789 5dbc 7528 9cbb 9951 193d fc1d e13c
00000080: 60d2 3e3c 152f d33c ab13 103d 7ada 13bc
00000090: c6c9 283d 8b67 603c 2f00 33bc 3610 f9bc
000000a0: 6914 55bd 591b 873c 288a cc3c 9d07 fab8
000000b0: 3a75 03bd 4988 363c 90be 80bc 2d7a 27bd
000000c0: ee76 fdbc 049d 543d f70e 5d3c dd1c 8b3c
000000d0: 12ae ea3b 2b10 5dbd 86c8 2bbd 78ac 82bc
000000e0: 01c4 a6bb 416a 19bc 8929 2abb 3e78 24bc
000000f0: 465f 13ba 2978 b3bc b7d2 aebc bc4b cd3c
-0.0042323344 -0.02325354 0.04896315 -0.050089415 -0.003341489 -0.06457746 0.030407093 -0.010112627
0.0044510793 0.005101898 -0.026311167 0.02242924 -0.008313408 0.054131724 -0.009166124 -0.019349992
0.034857012 -0.051457256 -0.0004471744 0.004194303 0.10232555 -0.018421413 0.05307027 -0.014592498
0.01666788 -0.008558663 -0.068430424 -0.007977351 -0.013521514 -0.004765565 0.037431333 0.027480118
0.011646837 0.025779286 0.035175007 -0.009024257 0.04120805 0.013696562 -0.010925337 -0.030403238
-0.052021418 0.016492533 0.024968222 -0.00011922347 -0.032094218 0.011140891 -0.015715867 -0.040888
-0.0309405 0.051907554 0.013492337 0.016981537 0.007161864 -0.053970497 -0.04193928 -0.01595138
-0.0050892835 -0.009363712 -0.0025964698 -0.010038434 -0.0005621802 -0.021907883 -0.021340711 0.025060527

policy.weight f4 [4, 3136]
00000000: 580c 523d f970 f6bc 1f1f 29bc b473 a5bc
00000010: d0ae cfbc 207d 0fbd ca59 aa3c 7002 bfbb
00000020: 5af9 94bd 151d 2dbd da13 85bd dfc2 71bd
00000030: f420 09bd 66e0 033d dcbf e03c 35d8 81bd
00000040: a5de 4abd 2441 a3bd eda8 ddbd 1839 97bd
00000050: 0248 973c da1a 503d 1fec 1fbd 6342 933c
00000060: f2a6 aabd 0fa6 d2bd ccbc 84bd 38e6 613c
00000070: 8c39 973d 9f2e ccbc e44a efbc 5d0f 08bd
00000080: 62ec b8bd d67b 62bd ca09 68bc c3a9 333d
00000090: ae73 62bc 63d2 21bd c5ea a5bc fd7d 1fbd
000000a0: 1055 9ebc 4e1c cbbb 7ce2 0c3b 598f 4fbd
000000b0: 59a8 93bc aa8f 7138 292d 003c bb02 97bc
000000c0: 5005 17bd 239b a73b ffef 9a3b cde1 123d
000000d0: c945 a33c 90ed b73c 312a 123d 23aa f93c
000000e0: 17ce 993d d44b 013d 798d 1a3d 5ed2 1d3d
000000f0: 0b5d 973d 5c1e ee3c 2245 6b3d 3396 f83c
00000100: ac80 1d3d 1ac2 193d 93b4 1a3d 8d55 e63c
00000110: 2b84 123a 4b77 c1bb 97d3 013d f577 673c
00000120: 3105 fb3a abf4 9ebc 14a1 9a3c 2fe8 a8bb
00000130: 0d70 80bd 4b79 b1bb 29af 3bbd 0c6c b2bc
00000140: 1f40 05bd 1575 85bc 934f 95bc 7cb4 a7bc
00000150: 4c14 39bd 53a9 b0bd 42bb 8bbd 0510 45bd
00000160: 4dce 09bd 370e 05bd a470 52bc 0c2c 0ebd
00000170: 8a86 71bc b08e 343b 6fad 743a 0e36 d4bb
00000180: 68f7 303b f703 82bb 00a1 64ba 9138 843c
00000190: 3cc4 7f3c 8a8f 993c 6a4e 5e3d f8c8 963d
000001a0: 4f24 f43b 6e75 813c 9ae4 b9bc 742d 00bc
000001b0: 8de7 7f3b d407 cb3d a768 6d3d 6ec6 803d
000001c0: 63f5 11bd 94c5 debc 26a2 9f3c 3bbd b63c
000001d0: 028b b33d 071a 223d ee81 883d 7304 84bc
000001e0: daad 9fbc 3957 eb3b 6e34 793c dd5e 7e3d
000001f0: 2202 fe3c 5dc3 c23b fc9f 43bc d6d2 d2bb
00000200: 48e6 80bb 5b91 b43c 9cb7 543d 05e7 683d
00000210: 7d8d 943c acaa 10bd da89 73bb 3b38 503b
00000220: aa97 db3c 44a4 443d 0ae9 393d aee9 3f3b
00000230: a169 91bc e170 04bb 184d da3b 6141 d83c
00000240: c9b9 433c 3780 ac3c be86 d63c e2ea 8dbc
00000250: 71a1 193d fe5d c13c c6ec c23c d644 223d
00000260: 2015 fe3d ea41 0eba 4f83 8bbc 08a6 84bb
00000270: fec1 69bc ef72 d1bb 668e e53c 3289 c83c
00000280: ee9e 89bb 8741 a73c 32e4 5a3d 4c10 473d
00000290: 4a47 0e3d fada 843d 6d8c c43d 4b24 893d
000002a0: c7f8 a1bc e413 263d 56b9 8c3c 5ccd 283d
000002b0: 9c0b 653d 6f41 b53d 94e4 003d 8ebc c9bc
000002c0: 07d6 4b3c 2dc8 b53c 2300 943c f61a 963c
000002d0: 8a58 013d f67e f33c 8c9f 693d 6113 383d
000002e0: b944 4a3d ea50 b83d a51d 7b3d 14c4 80bc
000002f0: 5245 7ebb 8298 16bd 6547 8dbd dba7 e3bd
00000300: aeef e8bd f3b2 bbbd e041 c9bd 44d9 8ebd
00000310: 7422 86bc a0d2 d03c 7ec2 813d 5eaf 683d
00000320: 3d2e 783c 70a4 093d 6e2f 873d 8fcc bb3d
00000330: 649e aa3c a86d 513d d13a d53d 9273 723d
00000340: c48f 2f3d 4ba9 eb3d a958 52bc fd84 a93c
00000350: 3137 cc3c a177 4c3d a372 833d 1dcc 8f3c
00000360: c85a 193d 311c ee3c ca45 f1bb 9a67 3e3c
00000370: eefc 853d 8b01 603d 86cc 393d 8801 433d
00000380: d609 a13d 6d82 473d fc6a ac3d f511 153e
00000390: dda8 143e 9458 a53d 7b2c bb3c 8582 273c
000003a0: 60c3 443d 18f0 593d d3c9 703d 9d84 6f3d
000003b0: 8652 993d aaeb 253c 63dd 403d 114e c4bb
000003c0: 6261 1fbd 1cee 6dbd 9db9 cbbb b6d8 de3b
000003d0: 50d9 0d3d c2c4 f73b db34 963c 5bc9 033d
000003e0: c985 c93d 1f02 863d 24b1 6c3d 3a53 273d
000003f0: 2c4f c23d 5a09 623d 5575 363d d7ab 973d
0.051281303 -0.030083166 -0.010322361 -0.020196773 -0.025351912 -0.035031438 0.020794768 -0.005829148
-0.072741225 -0.042264063 -0.06497927 -0.059023734 -0.033478692 0.032196425 0.027435236 -0.06340066
-0.049528737 -0.07971409 -0.10823236 -0.07383937 0.018466953 0.050806858 -0.039043542 0.017975992
-0.083326235 -0.102855794 -0.06481323 0.013787799 0.07384023 -0.024924574 -0.029210515 -0.033217777
-0.090294614 -0.05529388 -0.01416249 0.04386307 -0.0138215255 -0.03950728 -0.020253548 -0.03893851
-0.01932767 -0.0061984425 0.00214973 -0.050673816 -0.01802461 5.7592675e-05 0.007823267 -0.01843392
-0.0368703 0.0051149293 0.004728317 0.03585987 0.019930737 0.022452146 0.035684768 0.030476635
0.07510012 0.031566456 0.037732575 0.0385307 0.073907934 0.02906721 0.057438977 0.030345058
0.03845279 0.037538625 0.037769865 0.028116966 0.00055891526 -0.0059041134 0.03169593 0.014127721
0.0019151327 -0.019403776 0.018875636 -0.0051546316 -0.06271372 -0.0054160706 -0.045821343 -0.021780036
-0.032531854 -0.01629118 -0.01822642 -0.020471804 -0.045185372 -0.08626046 -0.06822826 -0.04811098
-0.03364401 -0.03248426 -0.012844238 -0.034709975 -0.014741549 0.0027550869 0.0009333705 -0.0064761704
0.0027002934 -0.003967758 -0.00087215006 0.016140254 0.015610751 0.018745203 0.054274 0.073625505
0.0074506174 0.015803065 -0.022692014 -0.007823337 0.0039047927 0.099136025 0.057961132 0.062878475
-0.03563441 -0.027193822 0.019486498 0.022307029 0.08766748 0.039575603 0.06665407 -0.016115403
-0.019492079 0.0071820286 0.015210254 0.062102187 0.031006876 0.0059436993 -0.011939999 -0.006433825
-0.0039337017 0.022041967 0.051932916 0.056860942 0.018133873 -0.035319015 -0.0037161023 0.0031771797
0.026805717 0.04800822 0.04538826 0.002928357 -0.017750563 -0.0020208883 0.0066620223 0.026398363
0.01194615 0.021057231 0.026187297 -0.017323915 0.03750748 0.02360439 0.023794543 0.03961643
0.12406373 -0.0005426692 -0.017030386 -0.004048113 -0.014267443 -0.006391875 0.028022002 0.024479482
-0.004199854 0.020416988 0.05344028 0.048599526 0.034735955 0.06487079 0.095970966 0.066963755
-0.019771947 0.040546313 0.017178219 0.04121147 0.055919275 0.08850371 0.03146799 -0.024626043
0.012441165 0.022190178 0.018066471 0.018323403 0.031578578 0.029723626 0.05703692 0.044940356
0.049381945 0.08999808 0.061307568 -0.015718497 -0.0038798642 -0.036766537 -0.06898383 -0.11116
-0.1137384 -0.09164991 -0.09827018 -0.06975034 -0.01637385 0.025491059 0.063359246 0.05680787
0.015147743 0.033604085 0.06600843 0.09169876 0.02082748 0.051129967 0.10411609 0.059192248
0.042861715 0.115068994 -0.012838521 0.020693297 0.024928661 0.049918775 0.064183496 0.017553383
0.03744009 0.029066177 -0.007363056 0.01162138 0.06542383 0.05468897 0.045361064 0.047608882
0.07863204 0.048708368 0.08418843 0.14557631 0.14517541 0.080735356 0.022848358 0.010223989
0.048037887 0.053207487 0.058786225 0.05847608 0.07486443 0.0101269875 0.04708613 -0.0059907516
-0.03891123 -0.058088407 -0.006217195 0.0068007363 0.034631073 0.007561297 0.01833575 0.03217445
0.098399706 0.06543373 0.057786122 0.040850855 0.09487757 0.0551847 0.04454549 0.07405823

policy.bias f4 [4]
00000000: 2bcd 28bc 2bec 05bb 0da8 fbbb c32a 80bc
-0.010302822 -0.0020434957 -0.0076799453 -0.01564539

value.weight f4 [1, 3136]
00000000: e5b1 c53c 9462 273b 9b64 0fbb 6f5b 1e3b
00000010: 557b 84bc c5bf 203c 5425 8cbb e08d 403d
00000020: 8a49 dd3c 66c0 abbc daf2 c23c 752a 8d3c
00000030: d898 f5ba dbc1 b6bc d23a 6c3c 0929 a03c
00000040: 3620 d8bc 27e5 583c 4d4b c53c 8914 563b
00000050: df70 24bc 16bf a63d 67d4 53ba 06eb 4bbd
00000060: e1db 97bb 2c3f 5bba d627 f03b e8fc 51bc
00000070: a2c8 483d 6543 f83c e54b 86bc 49b5 a43c
00000080: abb0 c73c e82a 21bb b9e6 09bc 253c 9e3c
00000090: 9b2f 2ebc 6f2c e0bc 0e35 5abb e529 283c
000000a0: bcc7 103d 3372 a4bc 4d4f 823c 88d2 31ba
000000b0: a3dc 6dbc cdca c03c bd4f c13c 1095 973c
000000c0: 3697 89bc a20a b33c a163 dc3b 9a9f 903c
000000d0: 46ee aa3a 12af 23ba e901 4abc 5c86 91bb
000000e0: 7ff3 bd3c 1426 d73c f9d2 873c 2bfb 813c
000000f0: 6589 843b 56e9 7c39 e503 bfbc 8606 883c
00000100: a771 df3c 3c42 ba3c dd9b c03c 9573 cabb
00000110: 6afc 103c f8ee ce3c 4458 d03c 5ee0 f43b
00000120: 4a42 c03c 391f 983c 3be6 4a3c c5c4 e73c
00000130: e464 2bbb 6fce c03c 91fa 823c c249 023c
00000140: 2182 783c c3bb 2b3b a531 de3c a699 db3c
00000150: 1edf 8a3c 37b4 b23c a2f1 a03c ecb9 0a3c
00000160: aa69 a93b d679 0a3d 6a39 933c 31a0 3d3d
00000170: 51ff 153d 7db8 1f3d d563 5b3d 62fa 593d
00000180: 2680 003d e061 233d b59c e43c 6851 3e3c
00000190: c45b 7abc 0a58 30bc 19ed aa3c 8f6e afbb
000001a0: 1d85 af3c 77f5 5e3c cb46 09ba d178 db3c
000001b0: 0c30 d53b 0f54 d7bb d6ca 6c3c c338 013d
000001c0: 999e ba3c cff8 013d 7c3b 15ba c5ce 19bc
000001d0: 2ee7 e7ba 73c5 553a ecd2 953c fab3 5bbc
000001e0: 5334 033c 34dd 23bc 026d 11bc 3f64 2ebc
000001f0: 0439 d53b 7fd5 b03b de23 7b3b b313 8cbb
00000200: b3df 39bc 527d a5bb 2af4 cdbc c1c8 4cbc
00000210: c15a 69bc e257 063c 3367 873c 72fd 753c
00000220: b601 013d 3cb3 af3b a225 ee3c 64e1 b03c
00000230: 1d53 ca3c 2a9d 83bb 5815 50b8 a85a ab3b
00000240: ebee 0b3c 47e2 713b bb6b e7bb 0921 da3c
00000250: 8455 a93c e926 213d a406 043d 7cc7 a33c
00000260: e4d5 19bd 8aab acbd b14c 173c bc0e d0bb
00000270: c182 443c d488 e03a a3a0 c63c 600f 783c
00000280: 7562 05bd 93d4 da3b 1c95 95bb a203 e83b
00000290: 34ab 813c 3adc 9f3a 0ad9 fbbb ab08 a33b
000002a0: 9bc8 b83b dbc8 6fbc c22a 453c 97a7 903b
000002b0: 6784 773b ddc7 e73b 93ab 4f3c 2090 453b
000002c0: 23c3 4ebc e896 8d3c a267 af3c 5651 f23b
000002d0: 3e0a 0d3c ff0c b43c 6eca 8f3c 2911 76bc
000002e0: cff7 bc3c 321b d93b 3f1c 81bc ad2e d03b
000002f0: 7d69 94bc fc89 3f3b 446d 59bc 00e2 9abb
00000300: 7f08 4fbb c410 e53b 8823 823c 9c79 163d
00000310: 0b35 84bb 5370 ca3c c8e4 30bc 6d0c a6bb
00000320: cb26 a7ba 178d 8c3c 29d4 623c 45e5 423c
00000330: c55d 703c 11e7 fa3b 1b42 80bd 24b7 82bc
00000340: 2b7f 083d 2c7b e8bc afb7 903b d774 003c
00000350: cd46 763c 3e97 263c 7fec 35bb 8752 dd3c
00000360: a402 7abc e774 4d3c 4abf d53b 60ea c2ba
00000370: 9359 923b 4f5d a33c 1827 373c c5e6 dabc
00000380: c895 0a3d b4a5 2aba e965 273c dce1 12bc
00000390: 3b44 913c 93ba 383d 0f36 12bb 622c 493c
000003a0: 6a65 8dbc 5fb6 3bbc 781d 51bd c551 09bd
000003b0: f731 9dbc e3cb cb3b 322c b4bc 7768 a4bb
000003c0: 4ffa f83a b792 71bc c87d 533d 0f09 85bb
000003d0: 3e68 febc 1d4c 4bbd 776f 40bd 3d17 5fbd
000003e0: 4d5e bcbc 0c65 2cbd ddff 7f3c 6cb7 14bc
000003f0: 70c0 57bb 5fc3 0d3d c8be 903c 3df8 2e3b
0.024132678 0.0025540935 -0.0021880034 0.0024163385 -0.01617209 0.009811346 -0.004276911 0.047010303
0.027012605 -0.020965766 0.023797441 0.01723216 -0.0018737568 -0.022309234 0.014418321 0.019550817
-0.026382547 0.013238228 0.024083758 0.0032666049 -0.010036676 0.081419155 -0.00080806616 -0.049784683
-0.004634366 -0.00083636004 0.0073289676 -0.012816645 0.049019463 0.030305574 -0.016393611 0.020105975
0.024376234 -0.0024592225 -0.008416825 0.019315789 -0.010631467 -0.027364938 -0.0033295783 0.010263895
0.03534673 -0.020073986 0.015906954 -0.0006783386 -0.014517936 0.023534203 0.023597592 0.018503696
-0.016795736 0.021855656 0.006725744 0.017654229 0.0013040982 -0.0006244044 -0.012329557 -0.0044410657
0.023187397 0.026263274 0.016580092 0.015866837 0.004044699 0.00024119517 -0.023317287 0.016604673
0.027275873 0.022736661 0.023511821 -0.0061783292 0.008849243 0.025260434 0.025432713 0.0074730357
0.02346911 0.018569576 0.012383993 0.02829207 -0.0026152665 0.023535935 0.01598862 0.007952156
0.015167744 0.0026204444 0.027123282 0.026806664 0.016952094 0.021814449 0.01964647 0.008467179
0.005170067 0.033807598 0.017971713 0.04629535 0.03662044 0.0389943 0.053562004 0.0532173
0.031372212 0.039888263 0.027906755 0.011616088 -0.015280668 -0.010763178 0.02086501 -0.005353756
0.021425778 0.013608328 -0.0005236684 0.026791008 0.006505972 -0.0065713 0.014452657 0.031548273
0.022780703 0.031731423 -0.0005692763 -0.009387677 -0.0017692798 0.00081547274 0.018289052 -0.013409609
0.008008081 -0.010001469 -0.008876087 -0.010644018 0.006507041 0.0053965445 0.003832094 -0.0042748093
-0.011344838 -0.0050503397 -0.02514084 -0.012499035 -0.014242829 0.008199664 0.016528701 0.015014039
0.031495772 0.0053619426 0.02907068 0.02159185 0.024697835 -0.004016538 -4.9610942e-05 0.005229313
0.008540849 0.0036908553 -0.007062403 0.02662708 0.02067066 0.03934375 0.032232895 0.019992582
-0.037557498 -0.08431156 0.009234593 -0.0063494127 0.011994065 0.0017130622 0.02424652 0.015140384
-0.0325646 0.006678173 -0.0045648944 0.007080511 0.015828706 0.001219637 -0.007685785 0.0049753985
0.0056391484 -0.01463529 0.01203412 0.0044145095 0.0037768127 0.007073386 0.012675184 0.003014572
-0.012619766 0.017283872 0.02141172 0.00739495 0.008608399 0.021978853 0.01755258 -0.01501874
0.023067383 0.0066255564 -0.01576054 0.0063532204 -0.018116707 0.0029226532 -0.01327068 -0.0047266483
-0.0031590757 0.006990524 0.015886083 0.03673707 -0.0040346435 0.024711763 -0.010796733 -0.0050673992
-0.001275265 0.01715712 0.013844528 0.011895482 0.014670794 0.00765694 -0.062626086 -0.015956469
0.0333244 -0.028379045 0.004416428 0.007840357 0.015031529 0.010167895 -0.002775937 0.027016891
-0.015259419 0.012540079 0.0065230476 -0.0014870875 0.0044662445 0.019941954 0.011178754 -0.026721368
0.03383425 -0.0006509677 0.010217168 -0.008964982 0.01773273 0.045099806 -0.0022310053 0.012278648
-0.017260272 -0.011457055 -0.051053494 -0.033525247 -0.019188864 0.0062193736 -0.02199373 -0.005017336
0.0018995496 -0.014744452 0.051633626 -0.0040599178 -0.031055566 -0.049633134 -0.0469813 -0.05446552
-0.022994185 -0.042088553 0.015624967 -0.009076934 -0.0032921098 0.03461015 0.017669097 0.0026698255
